ML-Agent_EconomicModel/results/Economic/Economic/Economic-40672.onnx (onnx, 76961 bytes, 8 tensors)

action_model._continuous_distribution.log_sigma f4 [1, 5]
00000000: e6dc 53bb 1104 1639 018f 57bb 5b83 6d39
00000010: 4868 563b
-0.003232771 0.0001430663 -0.0032891633 0.00022651015 0.0032715965

action_model._continuous_distribution.mu.bias f4 [5]
00000000: f358 03bb ceb0 69ba 5cc0 59bb 894b 653a
00000010: 44d6 03ba
-0.0020042032 -0.00089145906 -0.0033226227 0.00087469124 -0.00050291815

action_model._continuous_distribution.mu.weight f4 [5, 128]
00000000: c7b3 9e3b e346 35bc 82f7 4cbc bc66 47bb
00000010: aedd bdba ccae 0d3b e840 44bc e32c 633c
00000020: e806 a73c 1f16 34bc 111e bfbc 040b ba3c
00000030: 7867 223c 02b8 c8b7 95bc 913b 1ea6 d3bc
00000040: 58c2 533c 0433 17bb 0f28 3a3d 12b3 babc
00000050: a002 683b 0ef8 8a3b 089a a8bc a8fc 0c3c
00000060: 2008 e2b8 ddf7 753b b397 7abc 3352 07bc
00000070: 6b61 8d3c a2b9 51bb a8b7 27ba 948c f8bb
00000080: c1bb 81bc 2a67 b13c 08a7 d73c 9098 0dbc
00000090: 4a3d 85bb 4dce a83c fb49 45bd fbce 023c
000000a0: e756 19bd dac2 2dbb 9c94 2c3c 9589 a8bb
000000b0: c2b7 553c b6e2 17bc 348c 80bb e248 adbc
000000c0: 71f0 98bb 6c17 41bc 6ae3 533c 83b1 31bb
000000d0: 0b07 293c 9f92 1c3b 14b2 3dbb 5f6c 34bc
000000e0: 138c 683a 5817 cbbb 42ad 633c 0ca2 763c
000000f0: 7a19 1abd 7703 833b e2ee 713b 1e36 d1bc
00000100: 652f ebb9 393e 73bc 7c22 afbc 8efd 28bd
00000110: 427f 4b3c 7118 153d 83e2 a43c d059 c4bc
00000120: caf3 6bbc 63c5 47bc bb68 bcbc ec1d b73c
00000130: a55f 01bd ad7d b9bc 8424 d5bc fa50 8f3c
00000140: 15f6 a03c 7697 87bc bb14 79bc 01f1 e23b
00000150: 0cce b83c 58a1 bd3c 5125 273a b7c9 b3bb
00000160: 1cf3 fdba b840 df3b 057e f6b9 05aa 143d
00000170: 7668 6dbb 4adc a33c a41d 243c 8c9a 71bc
00000180: c89b 4f3c 1905 e139 dde2 22bc b8d1 adbc
00000190: 2547 63bc 3527 963c 80b3 843c c125 57bc
000001a0: 8343 acbb 9c2d 4dbc b135 1ebd a108 9dbc
000001b0: be2f bd3c 159e d53c 7d72 87bc c95b 62bc
000001c0: 8bce b7bb 71d2 a63c 3d47 8fbc 4660 00bc
000001d0: 8612 4abb 85db 6a3b 6a70 c3bb ae03 583b
000001e0: 22e1 903c 4106 fc3a 02c7 603c 3cf5 09bc
000001f0: 2adb 08ba 5155 86bc 748a 2a3c 352b 51bd
00000200: 91b4 f03c 9f95 33ba 9733 b53c 1be7 5a3b
00000210: e5d8 c9bb 0ccb 57bc 3fbf 8bbc a9c0 173c
00000220: 6770 f9bc 5cc1 a5bc a978 bfbc 7bde 26bb
00000230: 0389 1f3c 728f 1cbc fb67 e4bb fc49 a8bc
00000240: 3d2e d9bc e99d 9fbc edd1 983b f675 8d3b
00000250: 5e92 f1bc 3535 a1bb 3254 953c a4d7 e63b
00000260: b8b2 56bc 3c23 d7bb f9f2 48bc ef1b 033c
00000270: 4848 92bc e723 c23c ca68 833c cc2c 673c
00000280: ce32 f2bc 971f e23b 58af c3bc acab b43c
00000290: 0b65 fc39 82fb 8b3b d055 e4bc 37f8 f2ba
000002a0: f690 a8bb 733e ddbc c909 a4bc 33a1 8e3b
000002b0: 0dda 9d3c 6a78 173d c145 3bbc 8033 24bc
000002c0: 6644 5bbb 8756 c43c 9d7f 16bd 5c24 c2b9
000002d0: 8975 0c3c d8db 513d 7972 883c e4e6 d53b
000002e0: c46e 57bb 1ab4 bbbc 3c62 80bb 1c55 283c
000002f0: f72e babb 32db 0b3d 567f 7bbc f82a e5b9
00000300: 1e9c 743c 19a4 073c 7b84 29bc e23d 953c
00000310: 6d6b ed3b 7ea8 903a 8c5b 523c 63f6 e13c
00000320: ec49 fb3a 2332 393c 73dc bfbc bc74 12bd
00000330: f85c 24bc d4ba eb3b 86b8 d7bc a00c 0fbc
00000340: afb1 26bc 1fb5 c33b 8ede eabb 2c53 7fba
00000350: 6efa 5e3c 18ff 073d ae33 14bc 0670 293c
00000360: ac92 5c3c 40d1 cabc 516c 113c 4d77 8d3c
00000370: 7b4e 91bc 248f f13c 24f1 023c ce26 34ba
00000380: 26b2 1dbc b711 92ba 6151 353c d26f 673c
00000390: c252 5ebb d32c 3abc bbc6 12bd a8fe 843b
000003a0: d975 a2bc 23e4 743c ebac f23c 1885 4e3c
000003b0: 398e 243c 2fb1 a8bc 70b0 73ba d1cb 173c
000003c0: 5a80 7d3c b1a6 ef3b c5f5 cf3c 8171 84bc
000003d0: 27e8 af3c a18d 103c db0c dd3b 007c 44bc
000003e0: ad98 23bb 7013 2dbc c804 adbb 0b2a 463a
000003f0: 0415 e8bc cd04 f23b 2ebd bfbc 4552 0d3c
0.0048432085 -0.011064264 -0.012510182 -0.0030426225 -0.0014485621 0.002161908 -0.0119783655 0.013865682
0.020389035 -0.010991602 -0.023329766 0.02271033 0.009912364 -2.3927543e-05 0.0044475296 -0.025836047
0.012924753 -0.002307118 0.04544836 -0.022790466 0.0035401955 0.004240996 -0.02058126 0.00860516
-0.00010778033 0.0037531771 -0.015294957 -0.008259344 0.017258367 -0.0032001515 -0.00063979113 -0.0075851176
-0.015836598 0.021655638 0.026324764 -0.008642331 -0.004066144 0.020606184 -0.048166256 0.007983918
-0.037436392 -0.0026513846 0.010533478 -0.005143354 0.0130443 -0.009270361 -0.0039229635 -0.021152917
-0.0046673347 -0.011785369 0.012932638 -0.0027113862 0.010316621 0.0023891104 -0.0028945254 -0.011012166
0.00088709703 -0.006197851 0.013896288 0.015053283 -0.037621953 0.003998216 0.0036916067 -0.0255385
-0.00044858005 -0.014846378 -0.021378748 -0.041257434 0.012420477 0.036400262 0.02012754 -0.023968607
-0.014401386 -0.012193057 -0.022999158 0.022353135 -0.031585354 -0.022642935 -0.026018389 0.017494667
0.019648591 -0.016551714 -0.015202696 0.0069257026 0.022559188 0.023148224 0.0006376105 -0.005486693
-0.001937482 0.006813135 -0.00047014668 0.036294956 -0.0036225594 0.020002503 0.0100168325 -0.0147463195
0.0126714185 0.00042919142 -0.009941784 -0.021218166 -0.013871943 0.018329242 0.016198874 -0.01313156
-0.0052570715 -0.012523081 -0.038625423 -0.019169154 0.023094054 0.026076356 -0.016534084 -0.013815829
-0.0056093386 0.020364018 -0.017490024 -0.007835453 -0.0030833795 0.003583641 -0.0059643285 0.0032961178
0.017685477 0.0019227938 0.013719322 -0.008420285 -0.0005220646 -0.016398104 0.010408986 -0.051066596
0.029382976 -0.00068506034 0.022119327 0.003340191 -0.006159889 -0.013170969 -0.017058967 0.009262242
-0.030449105 -0.020233802 -0.023372965 -0.0025462199 0.009737256 -0.009555684 -0.0069704033 -0.020543091
-0.026511306 -0.019484477 0.004663697 0.0043170406 -0.029488739 -0.004919673 0.018228624 0.0070447493
-0.013104133 -0.0065654796 -0.01226496 0.008002265 -0.017856732 0.02369876 0.016041178 0.0141098015
-0.029565241 0.0069007385 -0.023887321 0.022054516 0.00048140468 0.0042719254 -0.02787295 -0.0018537109
-0.005144234 -0.027007317 -0.020024197 0.0043527125 0.019269014 0.03698007 -0.011430205 -0.010022044
-0.0033457517 0.02396704 -0.036742795 -0.00037029653 0.008572944 0.05123505 0.016656147 0.0065277684
-0.0032872418 -0.022913028 -0.0039179605 0.010274198 -0.005681868 0.034144588 -0.0153501835 -0.00043710298
0.014929799 0.00827887 -0.010346527 0.018217985 0.007245472 0.0011036543 0.012839209 0.027583307
0.0019171811 0.011303457 -0.023420548 -0.035755858 -0.010031931 0.0071939025 -0.026333105 -0.008731037
-0.010174199 0.005972519 -0.007167644 -0.00097398716 0.013609512 0.03320226 -0.0090455245 0.01034165
0.013462704 -0.024757981 0.008875922 0.017268801 -0.017737618 0.0294872 0.007992063 -0.00068722374
-0.009624993 -0.0011144195 0.0110667655 0.014125781 -0.003392384 -0.011363226 -0.035834055 0.0040586777
-0.019831585 0.01494697 0.02962347 0.012604974 0.010043674 -0.0205923 -0.00092960056 0.009264902
0.015472496 0.0073135723 0.025385747 -0.016167404 0.021473004 0.008822829 0.0067459173 -0.0119924545
-0.0024962828 -0.010563716 -0.005280111 0.00075593655 -0.028330334 0.007385826 -0.023405638 0.008625572

action_model._discrete_distribution.branches.0.weight f4 [1, 128]
00000000: 8fb5 253c 0bcf 483c d013 f03a d9de 303b
00000010: eba8 223b b85e d0b9 ed95 a8ba 3a05 ea3b
00000020: 6713 9239 b05a 383c 9ad8 26bb ab34 9b3b
00000030: 4ee5 83bc 9791 4b3c ecc3 adbb 2767 7a3c
00000040: d3ae c1bb 949d acbb 88c8 62bc 9f35 b2bb
00000050: 13f3 043a d82e 26bc d376 1c3b 638e 29bc
00000060: bd46 4abc 5aca 79bc 038f 663c 7aa4 eb3b
00000070: 36e2 b9bb 2307 193b 69dd c83b d77f a13a
00000080: 4801 2ebc 223a 47bc 3624 1f3c aaca 4e3c
00000090: 4df5 8e3c 3def a9b9 eaf9 4d3c d859 44bc
000000a0: 4dab 1f3c 4fb8 6c3b 2732 24bc a30b d5bb
000000b0: 1b17 16bc bfcb edba 4a2b 7dbb 1390 a63b
000000c0: 1ae8 12bc d3eb c33c d82a 8c3b 68ad 33bc
000000d0: 4022 83bb 54be ad3c 1b39 0cba ed41 e0ba
000000e0: f2c7 0bbb f43c be3b 3db6 26bc 5afd 35bc
000000f0: f34a 333b 6613 893a b015 f9bb 96a4 a9ba
00000100: f260 003b 63a4 b93a 937b 903b 3381 89bc
00000110: f5c9 96bc 8bdf a73c b51e 1a3c 3f77 6e3c
00000120: d78b 923a 5cb4 953b cd66 ec3b 6880 93bc
00000130: 9dce b5ba 4618 993c 5e81 883b 7649 1e3b
00000140: 02a9 733c bd77 733b 617b b13b a7c0 103b
00000150: 14d2 2fbc 55b6 b5ba 1271 733b 3ad7 d03b
00000160: 57cf c4bb 41df 923b 4b78 8f3b 777d 87bb
00000170: 6184 35bb 537b 73bb e2e7 53bc 87d4 36bc
00000180: dba6 a33c 37fb 1f3c 8f7f 82bc b24f 1a3c
00000190: 2f3d 31bc 9a9c f53b 43b5 a0bb 3d51 95bb
000001a0: ef14 09bc ca5b 3fbb 2c9d a0bb a302 67bc
000001b0: bf6a 02bc 9de7 803c c757 febb 27d9 a0ba
000001c0: 4b49 48bc cffe 16bc 68d7 5abc e850 1fbb
000001d0: 9d1d 6d3b e210 b13b 7c20 82bc 076f 02bb
000001e0: 1704 103b 52c9 dcbb 45c6 5bbc 9c14 8c3b
000001f0: 5574 d33b 2ada ebba f777 99ba 8ba6 5eba
0.010114088 0.012256394 0.0018316451 0.0026988296 0.0024819921 -0.00039743423 -0.0012862064 0.0071417363
0.00027861746 0.01125209 -0.0025458694 0.004736503 -0.016100552 0.012424848 -0.0053028967 0.0152833825
-0.0059107332 -0.005267808 -0.013841756 -0.005438521 0.0005071621 -0.010143004 0.0023874536 -0.010348889
-0.012345967 -0.015245998 0.014072183 0.007191238 -0.0056727184 0.00233502 0.00612991 0.0012321424
-0.010620423 -0.012159856 0.009713223 0.012621561 0.017450953 -0.00032412438 0.012571791 -0.011984311
0.009745431 0.0036120599 -0.010021723 -0.0065016313 -0.009160782 -0.0018142386 -0.0038630539 0.005083093
-0.00896647 0.02391616 0.0042775683 -0.010966636 -0.0040018857 0.02120892 -0.00053490855 -0.0017109491
-0.0021328893 0.005805606 -0.010175285 -0.011107767 0.0027357906 0.0010458052 -0.0076014623 -0.0012942727
0.0019589034 0.0014163371 0.0044092624 -0.01678524 -0.018406847 0.020492336 0.009406735 0.014554798
0.0011180592 0.0045686197 0.0072144032 -0.018005565 -0.001387078 0.018688332 0.0041658124 0.0024152673
0.014871838 0.0037150227 0.0054163192 0.0022087486 -0.010731239 -0.0013863543 0.0037146253 0.0063733133
-0.006006162 0.0044821803 0.0043783537 -0.0041348296 -0.0027697312 -0.0037152364 -0.012933703 -0.011159069
0.019977024 0.009764484 -0.015929965 0.009418415 -0.01081781 0.007495475 -0.0049044206 -0.0045568035
-0.008366807 -0.0029198998 -0.004901549 -0.01409975 -0.007960021 0.015735442 -0.0077619287 -0.0012271748
-0.012224506 -0.009216025 -0.013357021 -0.0024309698 0.003618098 0.005403624 -0.01588463 -0.0019902603
0.0021975094 -0.0067378664 -0.01341397 0.0042749178 0.006453077 -0.0017994095 -0.0011708726 -0.0008493445

network_body._body_endoder.seq_layers.0.bias f4 [128]
00000000: 4007 37b8 c0b9 b8ba 3315 843a fb28 7abb
00000010: ebe7 6939 0ea3 8ebb 07d6 a13b 9c27 c13a
00000020: eef9 e4bb ae7c d43a fdad 703b a447 4d3b
00000030: f335 c53b 2ecb 72bb bd09 3aba fe85 a6bb
00000040: 1fb8 d0b9 687c 3bba e5d4 4dbb 0d71 9eba
00000050: 6476 dbba f168 e1ba f61a f3ba 5be3 2839
00000060: 3727 7bbb 9436 a33a cbe9 a939 a6c2 b4ba
00000070: d30b a83b 510b ab39 817c ec3b 8e62 0339
00000080: d68a 2fbb 6b1f c9ba c78f 3f3a 7c19 393b
00000090: 784d abbb c2bb f1bb f2a6 7038 7bfd 6a3b
000000a0: bed9 d8bb 4f2d b4b9 58b4 6fbb d84e 19b8
000000b0: 71fd 53ba 1cc6 c33a 2cd6 443a b623 00ba
000000c0: 653e 95b9 84bf ca3b 19af 82bb 07d0 efbb
000000d0: 85e9 903b b19a 0cba ed07 ccb9 b4b4 74ba
000000e0: 15a5 4a3b 9aaf 55bb 4026 57b9 0fc2 8f3b
000000f0: 23f2 003b 6ce4 c03a 5816 cdba c5e4 60b9
00000100: f6dc 12bb 6459 a4ba e3e2 d0b8 7ee8 98ba
00000110: 1a70 96ba fbdf daba 5e49 833a 0a8d 1bba
00000120: c322 ee3b 76cc c53b cc73 51b8 810b 03b8
00000130: a141 97b9 ba82 f83a 65ca 59bb 4ab3 f8ba
00000140: 5fd8 4aba cc9a ab3a 5eb1 59ba 8f3e 8639
00000150: cf8c dd3b afa9 a339 3a0c 74ba d07e c83a
00000160: 0423 6b39 223c aa3b 1b16 bc3b 4779 e13a
00000170: 2844 4eb9 a5cd abbb 4166 d0b9 133c 893b
00000180: f4e2 0dba eb80 193a 032f 28bb a213 7bbb
00000190: b82c 9dbb 137c a239 d66b 883b 25f8 763b
000001a0: 3472 34bb 0c0f 93b9 25e2 57bb 19cc 6cb9
000001b0: d961 4b3a 6dd4 c6b9 6607 e23b 0089 293a
000001c0: 7102 08ba cebc d2bb 9692 08ba f987 22bb
000001d0: 2018 85ba eea4 40bb eb2b 083a ca35 2ebb
000001e0: b474 633a ee8e 95b9 4069 79b9 a6d0 2f3b
000001f0: 6116 5d3b 45be 4abb 57a7 803b a753 f1b9
-4.3637352e-05 -0.0014093444 0.0010077119 -0.00381714 0.00022307008 -0.0043529337 0.004938844 0.0014736536
-0.0069878018 0.0016211474 0.00367248 0.0031323219 0.006018394 -0.0037047374 -0.0007096788 -0.005081891
-0.00039810032 -0.0007152022 -0.0031407413 -0.0012088135 -0.0016743657 -0.0017197413 -0.0018547464 0.00016106425
-0.0038322934 0.0012452179 0.0003240838 -0.001379092 0.0051283627 0.00032624093 0.0072169905 0.00012529848
-0.0026785634 -0.0015344446 0.0007307496 0.002824395 -0.005227741 -0.007377119 5.737594e-05 0.0035856653
-0.0066177538 -0.00034366033 -0.0036576 -3.655147e-05 -0.0008086777 0.001493636 0.0007508721 -0.0004888134
-0.00028465982 0.006187381 -0.0039881584 -0.0073185 0.004422369 -0.0005363627 -0.00038915817 -0.0009334788
0.003092115 -0.0032605887 -0.00020518247 0.0043871473 0.0019675575 0.0014716513 -0.0015646918 -0.00021447528
-0.0022409535 -0.0012538848 -9.960474e-05 -0.0011665968 -0.0011477501 -0.0016698831 0.0010016372 -0.0005933797
0.0072673275 0.0060363365 -4.9937327e-05 -3.1243548e-05 -0.00028849862 0.0018959858 -0.0033232209 -0.0018974331
-0.000773793 0.0013092398 -0.0008304323 0.00025605081 0.0067611705 0.00031216207 -0.0009309683 0.0015296582
0.00022424391 0.0051951567 0.00573994 0.0017202281 -0.00019671081 -0.0052430206 -0.00039749037 0.0041880696
-0.0005412542 0.0005855697 -0.0025662787 -0.0038311263 -0.0047965907 0.0003099149 0.0041632457 0.0037684527
-0.002753389 -0.00028049236 -0.003294119 -0.00022582746 0.0007758416 -0.00037923772 0.0068978546 0.0006467253
-0.0005188352 -0.0064311987 -0.0005209831 -0.0024800284 -0.0010154285 -0.002939518 0.00051945326 -0.0026582354
0.0008676753 -0.00028525986 -0.00023785699 0.0026827245 0.0033735263 -0.0030936163 0.0039261985 -0.00046029428

network_body._body_endoder.seq_layers.0.weight f4 [128, 8]
00000000: de6f 53be 8c83 e33d 6d40 183e f442 2a3e
00000010: 855d ea3e 07be 17be 5b5a 303e e5a5 b33e
00000020: 2b91 d43e 1e9b 39be 10ac 36be fb92 ba3e
00000030: 1094 2dbf b9a8 8e3e bb91 fbbe 7654 4cbf
00000040: e5ce 3c3e e43f d8bd 70d6 303f 5bb9 7dbe
00000050: 4205 8e3e 9680 50b9 33ab 243e 44de 843e
00000060: de7d 073f 145f 323e 8aed bb3e d4b5 c6be
00000070: 7270 573e ec0b 8d3c 6a5f 383e d36d ce3c
00000080: b9f8 6abe 0596 133f 9855 9c3e 4081 8d3d
00000090: 7d81 b439 2b1c 483e 7748 ec3e 801d 4ebe
000000a0: 2aee 8c3d fb23 5dbf d5b1 1d3e 6fed bdbe
000000b0: 721a 02bf 407b 703e ec76 1d3f 6565 a63e
000000c0: 6650 a53c 09f0 b2be 2943 043e b8e0 cfbe
000000d0: a642 d7be 3350 31be 7dc8 bebe 4e57 db3e
000000e0: ee48 8cbe ec26 8ebe 399c d8be 6c7b aebe
000000f0: df2e bebd 84cd 093e 6a73 df3d 01ba 34be
00000100: 0111 a3be cad1 9b3e 5616 e83c 36ee 54be
00000110: 5e54 973e e14c 843e f9fa a8bc f3e8 57be
00000120: 2048 a33e 84d5 00bf 7cb4 fd3e aaf2 a5be
00000130: 8ae1 93bd acd1 37bd e39d 8bbe edc7 bfbe
00000140: 8d55 36be e153 b93e ce43 b3bd f7f6 87be
00000150: 955a 0b3e 88bb c8be a3ee bbbe 7c43 ccbc
00000160: 29e0 173e cf9b e53e 765c dbbe 6991 10be
00000170: fd1e 923e 6c5d babe 611c 1c3d 7a29 a2be
00000180: 34f6 d73d 330a 3d3e 22ff 3cbd e502 81be
00000190: 639c 093f b02c 12bd e868 e3be c595 343e
000001a0: 20f8 aebe f35e bf3e 2e12 a63e 2cca e6bd
000001b0: f42a 473e a540 81be 8f69 f83d 36bd c6bd
000001c0: f017 c5be 2e82 92be d186 eabe fbb0 143f
000001d0: 82f8 5c3d c777 593b b46d 26bf d580 543e
000001e0: 56dc edbe 698a 77be 6a89 113e 62c6 09be
000001f0: 71d2 763e 11eb 0a3f a572 ba3d 6099 1b3e
00000200: 1f17 2ebf 244e 50be 54b7 013f e56b d53d
00000210: f84d 083f eb0a e33e 085a 55bf befc 143e
00000220: ce8c e5be 6131 52be 5190 e8bd c514 213e
00000230: c956 fbbe a12d 923d 5e86 f73d 4080 5b3e
00000240: 5044 b33d aa28 2dbe 4db4 03be 4c36 c5be
00000250: 1c7e 8d3e 6b74 e1bd ff68 cdbd 6096 4ebe
00000260: 0c3c 323f 02c1 4abd 72c7 853e f781 1f3e
00000270: a89d c9be c9af 1a3f 5d5b a7be 7c7d 073f
00000280: 885d c63e da07 06be aac3 c13c 6fea 9e3e
00000290: 7766 c63e ec90 d93c 6022 51bf fd86 253d
000002a0: cc8d 4c3e 6244 16bf 6410 903e ce18 fabe
000002b0: d160 6bbc 247e 82be d850 5fbe b3ed 7ebd
000002c0: 962c e73e 58f6 bd3e 0382 d53e f9f4 733e
000002d0: e703 7ebe 39cd 18bd ded9 4abe 32a5 e73e
000002e0: 1b97 b2bd b14d e93e 5689 d13a 88f6 f23c
000002f0: 535c 30be ead6 d63d af99 1e3d 4dd4 afbe
00000300: 01df 9c3c 2bb2 31be f9e8 0ebf 07c0 e5bc
00000310: 94a5 f43c 2a17 99be 7277 b63e 981f 703e
00000320: e9e2 63be 8efc ca3e 88ae bf3e 0225 c83e
00000330: fd05 3dbf 8852 2fbe a9ab 1dbe d1a1 b9bd
00000340: 0b45 f9be b340 4e3e a3e2 92be ff90 9d3d
00000350: d650 14be 2908 0bbf bdd1 9cbd 11ed a03d
00000360: 1772 383f 3339 5dbf 7cfa 163f d7c7 843e
00000370: 8af7 8fbe b9b1 64be ea96 783e 30ee d7bd
00000380: 30a9 d63e 0373 593e 99ca 823e a15d ffbe
00000390: 7ab7 193f bb22 143e 691b d93e debc 093f
000003a0: d524 c03e ae37 b7be 2d5a dabe f272 1b3e
000003b0: f208 a9be 41fa f6be 5814 14be 0ce3 16be
000003c0: e1b2 9abe 33ca 84be 3850 4e3e 8d47 2abf
000003d0: 72bb c93e e768 67be f8a0 77be e7a2 c5bd
000003e0: 2a1d a13e 5500 013f 795f e93e 17f3 b53e
000003f0: 0db4 c83e da68 65be 89ba bfbe 151e a7be
-0.20648143 0.11109075 0.14868326 0.16627103 0.45774475 -0.14818583 0.17221968 0.35087505
0.41517004 -0.18125579 -0.17839074 0.36440262 -0.6780405 0.278631 -0.4913462 -0.7981638
0.18438299 -0.10559061 0.69077206 -0.24777739 0.27738386 -0.00019884328 0.16080932 0.25950825
0.52926433 0.17419082 0.36704665 -0.388106 0.21038988 0.017217599 0.18005148 0.025198853
-0.22946443 0.57650787 0.30534053 0.06909418 0.00034428752 0.19541995 0.46149036 -0.20128441
0.06881364 -0.86383027 0.15399869 -0.3709521 -0.508216 0.23484516 0.61509585 0.32499233
0.020179939 -0.34948757 0.12916245 -0.40601134 -0.42043036 -0.1731575 -0.37262335 0.42840046
-0.2739939 -0.2776407 -0.42306688 -0.34078538 -0.09286284 0.13457304 0.10910685 -0.1764908
-0.3184891 0.30433494 0.028330963 -0.20793995 0.29556555 0.25839904 -0.020627486 -0.21084957
0.31890965 -0.503258 0.4955176 -0.324117 -0.072207525 -0.044877693 -0.27268896 -0.3745722
-0.17806073 0.36196807 -0.08753167 -0.26555607 0.13608773 -0.39205575 -0.36705503 -0.024934523
0.14831604 0.44845435 -0.4284398 -0.1411797 0.28539267 -0.363994 0.038113 -0.3167227
0.105450064 0.18460922 -0.04614175 -0.2519752 0.5375425 -0.03568715 -0.44415975 0.17635258
-0.3417368 0.37377128 0.32435745 -0.1126903 0.19449979 -0.25244632 0.12129509 -0.09704058
-0.38494825 -0.28614944 -0.45805982 0.5808255 0.053947933 0.0033182965 -0.65011144 0.2075227
-0.46457165 -0.24173893 0.14212576 -0.13454583 0.24103715 0.5426493 0.09103898 0.15195227
-0.6800403 -0.20342308 0.5067036 0.1042097 0.5324397 0.44344267 -0.833405 0.14549538
-0.44833988 -0.20526649 -0.11355651 0.15730579 -0.4908965 0.07137609 0.120861754 0.21435642
0.08753264 -0.16910043 -0.12861748 -0.38517988 0.27635276 -0.11008533 -0.10029792 -0.20174551
0.69622874 -0.049500473 0.26128727 0.15576921 -0.39378095 0.60424477 -0.32686892 0.5292585
0.38743234 -0.13088933 0.02365287 0.31038234 0.3875005 0.026558362 -0.8169308 0.040411938
0.19975966 -0.58698094 0.28137505 -0.4884705 -0.014366345 -0.25486863 -0.21808183 -0.062238406
0.45151204 0.37102008 0.41700754 0.23823918 -0.24806176 -0.03730509 -0.19809672 0.45243222
-0.08720227 0.45567086 0.0015986364 0.02965857 -0.17222719 0.1049021 0.038720783 -0.3434166
0.019149305 -0.17353122 -0.5582424 -0.028045667 0.02986411 -0.29900485 0.35638005 0.23449552
-0.22254528 0.3964581 0.37437844 0.39090735 -0.7383726 -0.17121327 -0.15397514 -0.09064067
-0.48685488 0.20141868 -0.28688535 0.076936714 -0.14483961 -0.54309326 -0.07657192 0.07857717
0.7204909 -0.86415404 0.5897596 0.25933716 -0.28118545 -0.22333421 0.24276319 -0.105434775
0.41925955 0.2123528 0.25545195 -0.4987612 0.6004559 0.14466374 0.42403725 0.53803813
0.375281 -0.35784668 -0.42646924 0.15180567 -0.33014637 -0.48237804 -0.14460886 -0.14735049
-0.302146 -0.25935516 0.20147789 -0.6651543 0.39400822 -0.22598611 -0.24182498 -0.09650212
0.31467563 0.5039113 0.45580652 0.35537025 0.39199868 -0.22403279 -0.37447003 -0.32640138

network_body._body_endoder.seq_layers.2.bias f4 [128]
00000000: c062 4fbb 4750 bd3b aa45 87ba b7c3 dfbb
00000010: 97b0 05bb 7847 c2bb c5d0 f8ba 6d8b 633a
00000020: 65e9 7cba 6f5e b73b 8cb8 343a 9bb9 b0bb
00000030: a0d5 6e39 0357 8039 33df d2ba 6e9f 613b
00000040: 3879 8e3a cb09 5e3b a0c5 ccbb 53be 23bb
00000050: 8884 823a f519 02bb 5594 31bb 557c 4fba
00000060: 74cb 003a c1e6 a93a 68b1 d73b 1def 523b
00000070: f842 32bb 2515 18bb 5cab c6bb ae53 e5ba
00000080: c25b 2fba 5ab4 6cb8 6a47 ddba 9dc6 bf3a
00000090: 4c6f a93a 315f 4aba 16ba 853a a6e0 18bb
000000a0: fdcb 543a 31f0 453b 152e 94bb e855 cb39
000000b0: 1a01 fab9 4365 6bba c4dc a539 9fd2 9539
000000c0: e1e3 9f3b 9148 2339 c090 e4ba 08a6 803a
000000d0: 00af 383b 8627 883a 1044 33ba 6c31 9bba
000000e0: c695 bdba 2289 9739 8dbb d4ba 6ff6 b23b
000000f0: 2421 de3b ad20 5abb 4ba9 3eb9 e3fc f4ba
00000100: c1e0 e3b9 ace4 9cbb df8b 383b f560 773b
00000110: 486b 16bb f9d6 c9ba a844 ff3a 16ac 53ba
00000120: fdc6 c8b9 a411 dd3b 3c46 72ba d05c 3dbb
00000130: 1033 043a 0238 043a 526d 423a cd5d 8dba
00000140: 0403 273b 8a6e c73a 2b39 b1ba 75a0 d6bb
00000150: a636 d0bb 0c46 84bb a0da e4b9 7049 2738
00000160: e66e b7bb 8c01 90b9 9cf2 d8b9 ed36 eebb
00000170: 43e3 e739 30c6 bdbb 3608 f5bb 67f9 00bb
00000180: 7fae b73b 94cc 66bb dba6 d83b 7da5 adba
00000190: 68b1 3939 87f7 4a3a 33a8 9cbb cc95 003c
000001a0: a1cc aa3a 11df 353a cd6f bd3b baf8 a7ba
000001b0: 8ea4 9d3a da2f 1abb 4439 48ba 5045 bfba
000001c0: c590 ebba 31a9 a5bb a9fa 2e3b 0a42 a83b
000001d0: 64b0 1bba d067 6739 b092 8e3a 14a9 193a
000001e0: 8428 aa39 716d 5cbb 369c 04bb 2e8e eb3b
000001f0: 7f20 0e3a cf5b c2ba c8e1 2f3b bba3 1e3a
-0.0031644553 0.005777392 -0.0010320444 -0.006828751 -0.0020399445 -0.00592893 -0.0018983117 0.0008680139
-0.00096478156 0.005595974 0.00068939547 -0.0053932196 0.0002277703 0.0002447889 -0.0016088247 0.0034427303
0.0010869866 0.0033880349 -0.0062491447 -0.0024985268 0.000995771 -0.0019851897 -0.002709647 -0.000791495
0.00049131294 0.0012962447 0.006582428 0.003218598 -0.002720056 -0.0023205962 -0.006062908 -0.0017496252
-0.0006689393 -5.643475e-05 -0.0016882245 0.0014631335 0.0012926846 -0.0007719873 0.0010202553 -0.002332726
0.0008117555 0.003020298 -0.004522095 0.00038783182 -0.00047684537 -0.0008979628 0.00031635736 0.0002857642
0.00487946 0.00015571924 -0.0017438158 0.0009815106 0.002818048 0.0010387755 -0.000683845 -0.001184029
-0.0014464192 0.00028903136 -0.0016230211 0.005461506 0.006778853 -0.0033283636 -0.00018182879 -0.0018691089
-0.0004346427 -0.004788002 0.0028159542 0.0037747 -0.0022952128 -0.001539915 0.0019475417 -0.0008074654
-0.0003829523 0.0067464877 -0.0009242033 -0.0028894432 0.00050430093 0.0005043746 0.00074168027 -0.0010785401
0.0025483975 0.0015215438 -0.0013521066 -0.0065498897 -0.006354171 -0.0040366706 -0.00043650437 3.9884297e-05
-0.005597937 -0.00027466973 -0.00041379489 -0.0072697313 0.00044229077 -0.005791448 -0.0074777855 -0.0019679905
0.0056055184 -0.0035217153 0.0066116876 -0.0013248172 0.00017709064 0.0007742573 -0.004780793 0.007848214
0.0013030955 0.00069378415 0.00578115 -0.0012815215 0.001202719 -0.0023527057 -0.0007637928 -0.00145928
-0.0017972222 -0.0050555696 0.0026699698 0.0051348256 -0.0005939065 0.0002206855 0.0010877457 0.00058616814
0.00032455113 -0.0033634568 -0.002023471 0.00718858 0.00054217124 -0.0014828386 0.0026837457 0.00060516194

network_body._body_endoder.seq_layers.2.weight f4 [128, 128]
00000000: da1d 02bd fcda e2bc eeba 043e f66b 303e
00000010: dca7 143d 1445 08be 26f1 223d 3fee d23d
00000020: b690 3a3d 9343 1dbd 755d debd 6719 a2bd
00000030: 2bb2 8d3c ea42 ad3c 9c53 0a3c 41e4 b5bd
00000040: 3a12 efbd d2c8 8a3d e105 cf3d b3c0 33be
00000050: 2afc ea3d 0382 2cbe bdb7 bcbd c3a5 463e
00000060: 6601 123e 89b0 9abd 623d c03d b508 91bd
00000070: 45fc d83c d44d 093d ea83 e4bc f8ac 3e3d
00000080: 5653 2bbd 5eaf 0e3d 6e1b 2c3e d3c5 3abd
00000090: 8811 ecbc 8a72 753d 0537 44be 9d1f 543d
000000a0: 1365 b03b a798 013d 1e4d 2dbe 33c4 d3ba
000000b0: b1f2 e4bd 2152 3b3d 22e2 bd3d 4def 9c3d
000000c0: 2cae d83d 32ea 4fbc 6a6a 29be c81f a3bc
000000d0: fa60 d5bc dd2c 80bd 0e18 d6bd c61a df3c
000000e0: ce71 aebd 97eb 97bb a9ca 72bc 9eb1 113b
000000f0: 2313 bc3d 8b7d 8c3d f9e4 c2bc de60 46bd
00000100: dd03 893d 938b 9c3d b4cb 813b a15a bfbd
00000110: 8670 8b3e 77ee 8abc cd08 4abc 2737 bebc
00000120: 3da4 97bb 988c 3f3c 1cad 01be 8e82 f6bc
00000130: 32c2 12bd dd88 9ebd 53d5 5d3e 3f45 fcbd
00000140: b276 4c3d 5eb7 3a3b 602b bb3d 9756 863d
00000150: 7b95 103d 9ab5 dc3d eb8a 8dbc 75d2 c8bd
00000160: dd45 04be f8a7 c6bd 0a77 253a c340 143e
00000170: 2a2e 99bc 4c63 f73d 9a4c 2c3c f164 e43c
00000180: caf5 913c 4af5 5c3d 2910 56bd a379 7b3d
00000190: 2c33 053e f5c2 b13d d9d4 42bd 1d5c e2bc
000001a0: 10f2 19bb 0f46 8f3c 0ab0 903c 51a3 253e
000001b0: f3a0 7ebb 5d38 25bc ad60 5f3c 6996 e1bd
000001c0: 9907 42be dde5 f9bd 51d7 d6bc 3b25 64bc
000001d0: 4ac1 33bd cdbb 58bd c902 c93c 47e8 59bd
000001e0: 1cd6 49bd 4bde 9b3d 428e 46bd 42a9 2dbd
000001f0: 2b09 f5bc 5816 fdbd cfce 223d fa2e 5abd
00000200: 396f 443c f4bd 09bc cb3e 603d f445 30be
00000210: ba47 ee3d 040c 893c 806f ef3d e75c 12bd
00000220: 98c1 493e 3d21 1fbd a3a0 7bbd ab4e 40bd
00000230: 27d8 be3d cc34 c7bd 14a1 35be 65be 643b
00000240: d4ce 293d 5b6d 63bc 0c6a c03c 0c8a 913d
00000250: 00b4 e0bd e56e 45bd 7f43 ab3d dffa 2b3d
00000260: 9d85 b43d c868 a6bb 622d 14bd d3a4 b03d
00000270: d44e 233e cd66 553c 95d5 943c 8ec2 04bc
00000280: 30c8 1a3e 3e7c c5bc 74d6 c83d 21a4 2dbd
00000290: e218 f1bd d7df a5bd 5c40 453d e44b cbbd
000002a0: 2e88 cd3c c514 0dbe d3dd c63d 5dd7 f8bd
000002b0: d56d 81bd c8c8 383d db82 173d 2bee d8bd
000002c0: 1519 5ebd 47d3 dbbd 5a19 8c3c e182 10be
000002d0: 3ce9 803d 2d38 223e 74b9 aabd 381c dabd
000002e0: fbf7 263d 6ffb a63a a867 a6bd 5f4a bbbc
000002f0: 8d03 c03d 187e acbb 7764 8d3d f0cb 923c
00000300: 6541 75bd 5205 f73d 07b7 96bc 9c6c d9bc
00000310: 2314 be3d bace a1bd 2d66 a43d bc00 a9bd
00000320: 187d 0bbe 7f11 d43d bc94 b2bd faa6 a1bb
00000330: d0d9 1c3d 32bc 133d 88db 043e a54c ab3d
00000340: be28 db3d 27ff 3bbd 6058 2a3e ed39 b23d
00000350: 4bb9 163d ca67 623c 1e86 e2bd f519 e33d
00000360: b88d 163d be90 bbbd e2ee 15be 8413 1e3d
00000370: ba0f f8bc 41c4 a23c c11f b9bd 23da ac3d
00000380: 3029 b7bd f453 ef3b d3ba ac3d 0266 45be
00000390: f61a febc 4b6b 02be 04c7 c43d 70db b63d
000003a0: 2802 2abd f10b 4fbc f58e c83d 4a8a 3ebe
000003b0: a740 a4bb f70c 91bd 089f 0c3e 3960 d0bc
000003c0: 565d 84bd 7263 dcbd d252 50bd 59c3 2dbe
000003d0: b7c3 003d 9772 08be 8878 d1bc dd16 89bd
000003e0: 82e2 82bd ca3d eebd 300b d9bc 0def 7b3d
000003f0: ac04 8fbd d996 f4bc ad7e 2a3e 0bb9 6bbd
-0.03176675 -0.02769231 0.12961933 0.17228684 0.036292896 -0.13307601 0.03978076 0.10299348
0.045548163 -0.038394522 -0.10857669 -0.07915001 0.017296871 0.021150071 0.008442786 -0.088814266
-0.11673398 0.06776585 0.10108543 -0.17553978 0.11473878 -0.1684647 -0.09214733 0.1939917
0.14258346 -0.07553203 0.09386708 -0.07081739 0.026487479 0.03352149 -0.027894933 0.046551675
-0.041827522 0.034835212 0.16807339 -0.045598816 -0.028816953 0.059923686 -0.19161613 0.05178796
0.0053831427 0.03163972 -0.16923949 -0.0016156494 -0.11179102 0.04573262 0.09271647 0.076628305
0.10580096 -0.012690114 -0.165445 -0.019912615 -0.026047219 -0.06258557 -0.10453807 0.027234446
-0.085178 -0.004636239 -0.014818826 0.0022231112 0.091833375 0.06859883 -0.023790823 -0.048432223
0.0669019 0.07643809 0.003961051 -0.09343458 0.27234286 -0.016959412 -0.0123312 -0.023219658
-0.004627733 0.011691235 -0.12663692 -0.03009155 -0.03582973 -0.07740948 0.21663408 -0.12317895
0.049917884 0.0028490643 0.091391325 0.065594845 0.035298806 0.10776825 -0.017278155 -0.098057665
-0.12917276 -0.09700006 0.00063119887 0.1447783 -0.01869877 0.12079486 0.01051631 0.027880164
0.017817397 0.053944863 -0.052261505 0.0613953 0.13007802 0.08679763 -0.04756627 -0.027631814
-0.0023490228 0.017489461 0.017662067 0.16175582 -0.0038853257 -0.010084239 0.013633889 -0.110150166
-0.18948211 -0.12202046 -0.026225718 -0.013924892 -0.043885507 -0.052913476 0.02453746 -0.053200033
-0.049276456 0.076107584 -0.04847551 -0.042397745 -0.029911598 -0.12357777 0.03974801 -0.053267457
0.011989408 -0.008407105 0.054747384 -0.17214185 0.116347745 0.016729362 0.11691189 -0.03573313
0.19702756 -0.038850058 -0.061432492 -0.046950024 0.093185715 -0.09726867 -0.17737228 0.0034903523
0.041457012 -0.013881053 0.023488067 0.071064085 -0.10971832 -0.04820146 0.08362483 0.041987296
0.08814547 -0.005078409 -0.036176093 0.08625188 0.1594804 0.013024998 0.01816825 -0.008103026
0.15115428 -0.024107095 0.09806529 -0.042392854 -0.11772324 -0.08099335 0.04815708 -0.09926584
0.02508935 -0.13777454 0.09710278 -0.12150452 -0.06319777 0.045113355 0.036990028 -0.10592302
-0.05422314 -0.10733657 0.017101932 -0.14112426 0.06294486 0.15841742 -0.083361536 -0.106499135
0.040763836 0.0012739728 -0.081252396 -0.022862611 0.09375677 -0.005264055 0.06903928 0.01791951
-0.05987682 0.12061562 -0.018397821 -0.026541047 0.092811845 -0.07900758 0.08027301 -0.08252093
-0.13621938 0.103548996 -0.08719775 -0.0049332352 0.03829366 0.03606815 0.1297437 0.08364228
0.1070113 -0.04589763 0.16635275 0.08702455 0.036797803 0.013818691 -0.11060737 0.11088935
0.036756247 -0.09158467 -0.14641908 0.03859283 -0.030280937 0.019868972 -0.0903926 0.08440044
-0.08943403 0.007303709 0.084340714 -0.19277194 -0.031018715 -0.12736242 0.09608272 0.08928573
-0.041505963 -0.012637124 0.09792892 -0.1860744 -0.00501259 -0.07082551 0.1373254 -0.025436508
-0.06463115 -0.10761155 -0.050860234 -0.1696905 0.03143665 -0.13324963 -0.02557017 -0.06693814
-0.06390859 -0.11632879 -0.026494592 0.061507273 -0.06983313 -0.029857086 0.16649885 -0.057549518
