ML-Agent_EconomicModel/results/RollerBall/RollerBall/RollerBall-5148.pt (torch, 448335 bytes, 39 tensors)

network_body._body_endoder.seq_layers.0.weight f4 [128, 8]
000000 4c a0 1a 3f a2 6a 1e 3d 9a 7a c2 be ed 0b 0a 3e
       0.60400844 0.03867591 -0.37984163 0.13481112
000010 ad 53 e4 be d6 d1 e1 be 0d 6a d8 be 13 3b 3c 3f
       -0.4459509 -0.44105405 -0.4226841 0.7352764
000020 85 57 84 3e 25 01 0d be 73 9f 1f be 19 b4 2f 3f
       0.25848022 -0.13769968 -0.15588169 0.6863418
000030 01 a4 1d bf f9 63 fb 3e d4 4c 72 bd 6f 9c e7 be
       -0.61578375 0.4909971 -0.0591553 -0.45236537
000040 16 7f e6 be 67 5a 23 bf cc 53 e3 3d ac 53 ce 3e
       -0.45018834 -0.6380982 0.11099967 0.40298212
000050 71 5a dc 3e ea a9 d2 bd 92 03 13 3d 7e 6f db bd
       0.4303775 -0.10286315 0.035892077 -0.10714625
000060 80 6c 4d 3c ac 17 2c be e7 e4 ae be df 03 6b 3e
       0.012538075 -0.16805905 -0.34159014 0.22950695
000070 be a9 ce bd 32 92 32 bf 20 82 0b 3f 90 db fa 3d
       -0.100909695 -0.69754326 0.5449543 0.122489095
000080 d8 89 f4 be 06 4d a0 bd 25 9a 1f 3e c8 f7 38 3e
       -0.47761416 -0.07827191 0.15586145 0.18063271
000090 79 6d 12 bf 8a c9 ca bc 9e e1 d3 be b5 5c ae 3e
       -0.5719829 -0.024754304 -0.4138307 0.34055105
0000a0 de db d8 be 93 cf d2 3e bc f9 76 3d 2a 49 0b be
       -0.42355245 0.41173992 0.06029676 -0.13602129
0000b0 8a 99 d6 3d 76 e8 0e 3e 90 3f a9 be bb 18 d7 bd
       0.10478504 0.13955864 -0.33056307 -0.10502764
0000c0 7d 6d b8 be 1b f3 34 3e d1 ae 62 3e 92 d5 81 be
       -0.36021033 0.17670862 0.22137 -0.25358254
0000d0 53 5a 47 3e 6b 4f e3 be 4e 6e 15 bc 55 2c e3 be
       0.1946805 -0.4439653 -0.009120537 -0.4436976
0000e0 a6 98 1f 3e 01 f5 39 3e 17 2f 7b be 8e 8d 1f 3e
       0.15585575 0.18159868 -0.24529682 0.15581343
0000f0 90 5d 87 be af 57 48 be 82 a6 72 3e b7 a4 3d be
       -0.2643857 -0.19564699 0.2369633 -0.18519865
000100 51 22 1c 3e de d8 3c 3e f9 fc ac 3e 75 06 97 3e
       0.15247466 0.18442103 0.33786753 0.29497114
000110 59 6d 3e 3e c0 57 f8 be 57 62 3b be c6 06 d1 3e
       0.185964 -0.48504448 -0.18299232 0.4082548
000120 bf 87 c8 3d c8 47 8d 3e 27 e2 82 be 7d b3 1e bf
       0.097915165 0.27593827 -0.25563166 -0.6199263
000130 05 d0 12 3f 68 9e 95 3e f6 da a5 3e 2a 64 c8 3d
       0.5734866 0.29222417 0.32393616 0.0978473
000140 99 e2 35 be 8e 03 e0 3d aa 7d e2 be 3b 42 6a 3e
       -0.17762221 0.10938178 -0.442365 0.22876827
000150 71 c0 32 3f 16 e3 1b 3f f2 3c 23 3e fc 6e aa be
       0.6982489 0.6089338 0.15941218 -0.332878
000160 c9 03 aa bd f1 b9 5b 3e a0 b8 8d be c0 01 90 3e
       -0.08301503 0.2145765 -0.2767992 0.28126335
000170 ae a2 75 bf fb 7f 00 3e c5 6f 1a bf cd 27 07 be
       -0.95951355 0.1254882 -0.60326797 -0.13198777
000180 61 ef 6f 3d 92 a2 5d 3e b3 a4 98 3e 10 2d c9 bd
       0.0585779 0.21644047 0.29813156 -0.09823048
000190 38 12 ae be 8c aa c2 bb 89 69 42 be 34 ee cd be
       -0.33998275 -0.005940741 -0.18985571 -0.40220797
0001a0 3d 3d 2a bc b7 cc 49 3e 9a 0d a4 3e ae 54 d5 3d
       -0.010390577 0.19706999 0.32041627 0.10416542
0001b0 e8 7d ea be 77 c4 34 3e 11 4e cc be c6 11 5a be
       -0.45799184 0.1765307 -0.3990331 -0.21295843
0001c0 a3 79 6c bf 06 8f bb be 90 8c c3 3e 28 fa 45 be
       -0.923731 -0.36632556 0.38193178 -0.19333708
0001d0 ae 4a c4 39 46 e1 bc 3e 75 7a 3e be 3c 11 be be
       0.00037439674 0.3689062 -0.18601401 -0.37122524
0001e0 b1 b1 81 3e bc 6e 84 3e b0 52 f6 bc dd 55 fe be
       0.2533088 0.25865734 -0.030068725 -0.49674883
0001f0 56 27 8a 3e 2d 32 0e be 38 39 84 be 0f 2f 6e be
       0.26983136 -0.13886328 -0.25824904 -0.23260139
000200 ac 33 cc bd 33 48 f5 3d c8 b1 2f 3f 1d 2d 00 be
       -0.09970793 0.119766615 0.6863065 -0.1251721
000210 9b 74 39 3e bd 03 31 be a0 ae 23 3f ff 15 11 bf
       0.18110888 -0.17286582 0.6393833 -0.5667419
000220 a4 82 0c 3e 4a 19 97 3e 27 db ac 3e 79 d3 26 3f
       0.1372171 0.29511482 0.3376095 0.6516643
000230 ff 7d 1a 3f 88 f7 c6 bd f2 b9 55 be 1c 5d 97 3e
       0.60348505 -0.097151816 -0.20871714 0.29563224
000240 7d 65 15 3f 51 b7 d0 3e ad 8c 89 be 1d ac e0 bd
       0.58357984 0.4076486 -0.2686514 -0.10970328
000250 7e e9 02 be d8 bb 0e 3f c3 16 90 be 32 2a 51 be
       -0.12784383 0.55755377 -0.28142366 -0.20426252
000260 8f 4d 5b 3e e9 10 2e be 3a 10 4e be b9 fa 70 be
       0.21416305 -0.16998638 -0.20123377 -0.23533143
000270 dc c1 87 3e 4c be fa 3d a9 c7 30 bf 82 25 62 be
       0.2651509 0.122433275 -0.6905466 -0.2208462
000280 b2 d2 09 3e be 8a 06 3c 7d 07 15 be 0f aa e4 be
       0.1345928 0.00821179 -0.14553638 -0.44660994
000290 55 4d be 3d 07 5e a1 3a 25 21 2d 3f c0 dc 0e bd
       0.09292094 0.0012311348 0.676287 -0.034878492
0002a0 4b 62 10 bf 7e 00 ea bd 9a 44 b4 3e 46 43 9f ba
       -0.56399983 -0.11425875 0.3520859 -0.0012150786
0002b0 75 09 86 be bb e3 f1 3e b3 50 47 3e 1b 55 61 be
       -0.2617909 0.47244057 0.19464378 -0.22005121
0002c0 42 30 c5 bd 34 bc a8 be 1d 53 16 3d fd 82 b8 bd
       -0.09628345 -0.32956088 0.036700357 -0.09009359
0002d0 4f 2e 03 bd 9b 63 5f bd 65 85 4a 3f 78 96 b8 3e
       -0.032026585 -0.05453835 0.79109794 0.360523
0002e0 d4 63 88 3e 7a 34 39 bf d3 c6 93 be 25 3b 27 be
       0.26638663 -0.723457 -0.28862628 -0.16331156
0002f0 47 66 11 be 1c 27 db 3e 8d 20 ef be 13 5a ff 3d
       -0.14199172 0.42803276 -0.46704522 0.12468352
000300 47 f8 b3 3c 8b 25 1e 3e 69 7f 55 3d 23 1a 38 bc
       0.021968974 0.15444009 0.05212346 -0.0112367
000310 44 19 2b 3e da 00 46 bf 2a f6 98 bd 79 4a 95 3d
       0.16708857 -0.7734505 -0.07468827 0.07289595
000320 e6 5b 52 be c3 57 69 bd cd 26 47 3e 21 6c 82 3e
       -0.20542869 -0.05696846 0.19448395 0.2547312
000330 f8 77 9b 3e 88 f7 e8 3d 25 a1 18 be 20 fe 55 3e
       0.30364966 0.11375338 -0.14905222 0.20897722
000340 86 01 1b 3f ad 51 7a bd 24 81 a8 3f d4 42 cf bd
       0.605492 -0.06111305 1.316441 -0.10120168
000350 bd 0f f2 3d 69 0f 6e 3e eb 7e 28 3f 3d 0b e5 be
       0.11819408 0.23248066 0.6581866 -0.44735137
000360 de 4f d0 3e a5 a3 c0 3e ff b6 a3 3e 82 29 17 3e
       0.40685934 0.3762485 0.31975552 0.14761928
000370 56 1e 71 be b1 51 fb 3e d7 62 e3 3e a3 a6 30 3e
       -0.23546728 0.49085763 0.44411346 0.17251067
000380 15 e8 38 3e fa d5 7f be bd 71 27 bf 76 6f 2e 3e
       0.18057282 -0.2498397 -0.65407926 0.17034706
000390 08 18 b3 3d 0f 07 34 bd 38 6b 26 bc 1e 87 5d 3d
       0.08744818 -0.043952044 -0.010157399 0.054083936
0003a0 21 fc 2c 3e 20 69 1a be 84 85 bc 3e 74 de 41 bf
       0.16893055 -0.15079165 0.36820614 -0.7573006
0003b0 3a c7 d4 bd db 57 88 be a8 5e ab be ce 14 48 3f
       -0.10389562 -0.26629528 -0.33470654 0.78156745
0003c0 e4 31 a8 3e 13 f9 1a 3e 41 fd 2c be 3d 7e 39 3e
       0.32850564 0.15134077 -0.16893484 0.18114562
0003d0 2c 60 c2 3c dd 1f d6 3e 24 79 68 be e9 12 a8 3e
       0.023727499 0.41821185 -0.22702461 0.32826927
0003e0 6c 2a 01 3f 38 0c 00 be d5 dc 9c 3e c4 16 4b 3e
       0.50455356 -0.12504661 0.3063723 0.19832903
0003f0 c8 06 a0 be 5e 3b 7e be 32 02 49 bf 19 b7 00 bf
       -0.31255174 -0.24827334 -0.78518975 -0.50279385

network_body._body_endoder.seq_layers.0.bias f4 [128]
000000 fe 29 a9 3c dd d5 d0 bb 40 61 4a 3c d3 30 99 3b
       0.020649906 -0.0063731507 0.012352288 0.0046750098
000010 84 dc 6a bb 04 d5 d1 b9 9b f0 67 ba d1 b0 5b 3c
       -0.0035837004 -0.00040022295 -0.00088478037 0.013408856
000020 51 e3 73 b9 3f 8d c5 bb a8 38 05 3d 2c bf 52 3c
       -0.00023258968 -0.0060288007 0.032524735 0.012862962
000030 fa a7 6c bb 07 01 dc bb 7e 3a 41 3c ff d9 d3 3c
       -0.0036110864 -0.0067139897 0.011793731 0.025860785
000040 52 62 3e 3d 48 27 35 bc cf 14 88 3c 77 13 a7 bc
       0.046480484 -0.011056729 0.016611485 -0.020395024
000050 2c 9a af bc e0 bc 7a bc ec ee 9d 3c a9 36 09 3c
       -0.02143582 -0.01530382 0.019278966 0.008374848
000060 ad fd 0c bc 7e f9 d6 3a ac e3 8c 3c 5b bc 9e bb
       -0.008605403 0.0016401259 0.017198406 -0.004844231
000070 e1 75 84 bc bf af 82 bc 0a fb d4 3c 2f 06 76 3c
       -0.01616949 -0.015952943 0.025998611 0.015016123
000080 ab cc 1b bb 93 86 88 3c 4e 94 ac bc 32 d3 29 bd
       -0.0023773115 0.016665732 -0.021066811 -0.041461177
000090 c0 fe 28 bc b7 c5 ee bb 49 75 11 3c fe 53 c7 3c
       -0.010314643 -0.007286753 0.008878061 0.024332043
0000a0 c4 00 af bc f0 b3 60 3c fc 18 8e bc 20 1d 35 3c
       -0.02136267 0.013714775 -0.017345898 0.011054307
0000b0 ae c4 e1 3c d6 d5 47 3c f3 ba 15 bc 5c c9 a2 3a
       0.027559604 0.012196979 -0.00913881 0.0012419629
0000c0 5c 68 74 bc 30 2d 45 bc ea a2 bd bc b6 9e a1 3a
       -0.014917459 -0.012034699 -0.023148973 0.0012330625
0000d0 e5 d2 a3 3c c4 13 20 3b c4 c2 4c bc d8 03 11 3d
       0.019998023 0.0024425844 -0.012497608 0.035404056
0000e0 b4 34 02 3c 3e 8a 4c 3c 98 39 b4 bc d7 9d 13 bd
       0.007947136 0.012484131 -0.02200012 -0.0360392
0000f0 1d cf 92 3c 62 1a 00 3d 23 45 4a bc cc 62 27 3b
       0.017921025 0.03127516 -0.012345585 0.0025541065
000100 75 29 a1 3c 46 d4 44 bb 84 09 aa bc 7c 2e 06 3c
       0.019673089 -0.0030033751 -0.02075649 0.008189794
000110 55 51 c9 bb 03 da 15 3d f2 f7 d8 3b 03 1b 03 bc
       -0.0061437287 0.036584865 0.0066213543 -0.008002046
000120 06 95 00 bc 60 fb 0c 3c d8 5b 6c bc 20 88 9b 3b
       -0.00784803 0.008604854 -0.014426194 0.004746452
000130 53 fa 00 bd 1a 3a 59 3c 9e 40 b3 3c 7f 2e f1 bc
       -0.031488728 0.013258481 0.021881398 -0.029441116
000140 b4 7f 8f bc 1b bd da bc 4f aa ba 3c ab e2 03 3c
       -0.017516948 -0.0267015 0.022786288 0.008049647
000150 bf ec 6f 3b 17 e9 0b bd 3d 04 d3 3c dc f9 1d bc
       0.0036609618 -0.03415784 0.025758857 -0.009642091
000160 59 6c 19 bb 12 3a 32 3b 96 10 a9 3c 04 22 50 3b
       -0.0023410528 0.0027195257 0.020637792 0.0031758556
000170 46 f2 30 3c 8e 60 c2 3b 5a 5b 3a 3c 7b 59 d4 bc
       0.01079995 0.0059319204 0.011374319 -0.025921574
000180 44 c7 af bb 4b 68 34 3c 7b 7b f0 bb a1 73 4f 3c
       -0.0053643305 0.0110111935 -0.007338939 0.012661845
000190 9a 25 c4 3c ff 2b aa 3c 5d f4 51 3c 42 71 c2 3b
       0.023943711 0.020772932 0.012814608 0.0059339115
0001a0 54 1e 80 bb cd eb b3 bc 2f fd d5 bc 0b e9 9e 3c
       -0.0039098654 -0.021963025 -0.026121704 0.019398233
0001b0 db bb f6 3c fe a2 23 3d 61 50 be bc 3c 36 9f 3c
       0.030118873 0.039950363 -0.023231687 0.01943504
0001c0 1f 1b 9c bc 71 e7 31 bc 21 ee 98 3b b4 ae 97 3b
       -0.019055901 -0.010858403 0.004667059 0.0046289805
0001d0 af 52 7a bc c6 56 96 3b b4 dd fa bb 51 95 e8 bb
       -0.015278502 0.004587981 -0.0076558236 -0.007097878
0001e0 7e 3b dc 3c 24 9b b2 3c e1 04 5d 3c d5 7e f3 bb
       0.026883837 0.021802492 0.013489933 -0.007430891
0001f0 8b 75 17 bc fc 52 a6 bc be 4d ea 3c 46 8a cf 3a
       -0.009244333 -0.020303242 0.028601523 0.0015834055

network_body._body_endoder.seq_layers.2.weight f4 [128, 128]
000000 9c e8 16 bb e8 be 81 3d c4 dd cf 3d 66 b4 28 be
       -0.002302683 0.063352406 0.1014972 -0.16475067
000010 c1 a1 10 3e 34 dd 18 3d 6a 02 00 bd d1 51 d7 bd
       0.14124204 0.03732033 -0.031252302 -0.10513652
000020 3f f8 eb bc b2 7a 95 bc 52 10 be bd 75 f1 f4 bc
       -0.028804896 -0.018246982 -0.092804566 -0.029900292
000030 9f c8 08 be f3 48 c5 bd 38 c3 17 3d d6 2f 1e bb
       -0.13357781 -0.096330546 0.03705141 -0.00241374
000040 d5 02 d6 bc be 2b a2 3c ed da 69 3d 69 7b b3 3c
       -0.026124397 0.019796249 0.05709355 0.021909432
000050 f8 d4 b1 3c 0e 93 ff 3d 8d 76 bb bc a3 74 62 3d
       0.021707997 0.1247922 -0.022883678 0.055287015
000060 6c 46 8d bc 4a 36 06 bd 3a 92 2e 3e 58 47 88 3d
       -0.017245494 -0.032766618 0.17047969 0.06654233
000070 2d 26 ca 3d c5 a9 a3 3c ab ce 27 bd 10 27 35 be
       0.09870563 0.019978413 -0.04096858 -0.17690682
000080 7c 1e 4a bd 36 b1 1b bd 56 75 89 3d 59 61 cb bd
       -0.04934548 -0.0380108 0.06711833 -0.09930677
000090 b5 82 14 3e 2b a6 a3 bd f8 2b 0e 3d 8d e6 89 bd
       0.14502986 -0.079906784 0.0347099 -0.06733427
0000a0 ea 12 09 bd 87 35 8c 3c 69 be 3f be 8d 2c 8f 3d
       -0.033465303 0.017115368 -0.1872498 0.06990919
0000b0 60 e7 0b bd 21 0d 2b 3e 45 ea ea bd 69 81 21 3e
       -0.034156203 0.16704227 -0.114704646 0.15772022
0000c0 c2 a9 cf 3d fb 50 df 3d 5d 84 24 3e f5 ce a0 3d
       0.101398006 0.10904118 0.16066118 0.07851974
0000d0 34 2c cc bc 35 32 98 bd 59 a5 3d 3d f5 b7 ee bd
       -0.024923421 -0.07431451 0.046300266 -0.11656181
0000e0 ac f6 1f 3e 37 c3 36 bd b3 03 6f bd d8 05 7a be
       0.15621442 -0.044619765 -0.058353137 -0.24416292
0000f0 07 4b e6 3d 3e 7f 45 3d cc 23 07 3d 24 8e e9 bd
       0.11244779 0.04821705 0.032993123 -0.11404064
000100 b4 69 e9 bd 25 24 c7 3d 0e 2d 9a bb d8 1f 2d bd
       -0.113971144 0.09723691 -0.004705078 -0.042266697
000110 ca 9e 5e be e5 95 85 3d 78 c3 52 3c 89 c2 7b 3d
       -0.2174026 0.06522731 0.012863986 0.06146482
000120 06 1b a3 3b b7 c8 bf bd 2d f8 de 3d 8d 2f ba 3c
       0.0049775867 -0.09364455 0.108871795 0.022727752
000130 70 f1 94 3d a6 7a 2e be 4c ca 9f 3b d1 4b 9f 3d
       0.07272613 -0.17038974 0.0048764106 0.07778133
000140 e0 b2 09 be 1e 51 37 bd 63 b5 19 be 79 95 d6 3c
       -0.13447142 -0.044755094 -0.150106 0.026194321
000150 80 72 17 be 54 5a fd 3d b6 72 f9 bd c3 c0 d7 bb
       -0.14789772 0.12370744 -0.121800825 -0.0065842583
000160 5f a7 8e 3c dc 5b 9d 3c 42 a3 04 be 34 bf 56 3d
       0.017413793 0.019208841 -0.12952903 0.05242844
000170 b4 c6 ec 3d 2a 23 06 be fd 52 8c 3d 0e 5a 39 3d
       0.11561337 -0.13099352 0.06851766 0.0452519
000180 49 7e 0c 3e 68 03 91 bd 7b 12 a9 3d 3c a3 7d bd
       0.13720049 -0.07080728 0.08255478 -0.06192325
000190 30 49 b8 bd 49 14 18 bd 9c 2f 8a bc 30 0e f5 3d
       -0.089983344 -0.03712872 -0.016868405 0.11965597
0001a0 d1 8e e6 bd 54 87 be 3d 19 69 77 bb 4b a9 de 3d
       -0.11257709 0.093031555 -0.0037751852 0.10872134
0001b0 3d 21 f3 bd 45 63 36 bd bd a1 d2 3d d0 0b 41 3d
       -0.11871574 -0.044528265 0.102847554 0.047130406
0001c0 ac 61 09 bd aa 10 25 ba 3e 66 90 3c 3f 82 13 3e
       -0.033540413 -0.00062967336 0.017626878 0.14405154
0001d0 09 68 8d bd 2d 9e 98 3d 32 c8 1a bd c6 3d f1 3c
       -0.06904609 0.07452045 -0.037788577 0.029448401
0001e0 da 36 53 bd 54 60 02 be b0 fa cd bb db 04 58 bd
       -0.051565982 -0.12732059 -0.006285988 -0.052739006
0001f0 b9 2a a5 bd b7 53 0d bd 7a e8 4b be 1d 75 03 3d
       -0.08064789 -0.034503665 -0.19912902 0.03209411
000200 8c 6a 1b 3e 65 d5 61 3d 3d 1f 4b be f7 a4 00 be
       0.15177363 0.05513515 -0.19836135 -0.12562929
000210 0d 1b 3c bd 20 ae 45 3c 62 9d a6 bd be 4e 14 b9
       -0.045924235 0.01206544 -0.08135487 -0.00014143714
000220 90 21 1f be a1 20 8a bc 1d 22 45 be 6b 10 87 b8
       -0.15540147 -0.016861262 -0.19251294 -6.44036e-05
000230 a6 96 4d bd 10 98 9a 3d ed e9 15 3d ad a6 9b 3c
       -0.050192498 0.07548535 0.036600042 0.019000376
000240 e3 d6 f0 bd 42 1f 29 be de 6f 38 3b 36 d8 ab 3d
       -0.117597364 -0.1651583 0.002814285 0.08390848
000250 c9 81 94 ba bc c8 3d bd 15 5a 03 be e4 d5 0e 3b
       -0.0011330183 -0.046334013 -0.12827332 0.002179497
000260 08 07 bf 3d fc 21 01 3d 74 a2 ed 3d 91 b6 57 3d
       0.09327513 0.03152655 0.11603251 0.052664343
000270 0e 11 8a 3d 44 60 9d 3d 25 0f b1 bd bf 9b c1 3c
       0.06741534 0.07684377 -0.08645467 0.023633836
000280 00 71 a3 3d d7 c3 ad 3d fc a4 8d 3b da ed 32 3d
       0.079805374 0.08484619 0.004322646 0.043683864
000290 4f e0 54 3d 5c ca c9 3d 34 03 31 3e a9 8a 08 bd
       0.05197173 0.0985305 0.17286378 -0.03333536
0002a0 e3 5f ad bc 25 72 15 be 5b 61 2d 3d 43 88 ae 3d
       -0.021163886 -0.14594324 0.042329174 0.085220836
0002b0 cf 77 b3 3c 0e b1 69 bc fc c0 8b bd 16 a2 04 be
       0.021907715 -0.0142634045 -0.06823918 -0.12952456
0002c0 8b 55 d5 3c 59 08 aa bd 6c e1 38 3c a5 15 45 3d
       0.026041767 -0.083023734 0.0112842135 0.048116345
0002d0 ee b0 eb 3d 90 88 81 3d cb 37 c5 bc a2 be da bc
       0.11508356 0.06324875 -0.024074456 -0.026702229
0002e0 47 d0 1b bb 72 b8 ed 38 d9 d5 d7 3d ab b2 9a bd
       -0.0023775266 0.00011335396 0.10538835 -0.075536095
0002f0 6b 62 d5 bb 28 26 f1 bd 8a ed 07 bd 17 a3 2d 3e
       -0.0065119765 -0.11774856 -0.03318552 0.16956745
000300 aa 2d 15 be ac 1d 99 bc d4 be 32 3d d0 8a 7c bd
       -0.145682 -0.018690906 0.04363902 -0.06165582
000310 46 ec 7f bd 42 79 e0 bd 4b 84 1a be 3a 20 3e bc
       -0.062481187 -0.10960628 -0.15089528 -0.011604363
000320 ed 0f f2 bc fc f4 bc bd 0e 9a 47 3d 55 0b df bc
       -0.02954861 -0.092264146 0.048730902 -0.027227083
000330 35 72 00 be a6 d7 2f bd c0 7f dd bd 4f 3c 8d bd
       -0.12543567 -0.042930268 -0.10815382 -0.068962686
000340 e3 20 08 3d 56 e8 ca 3d 6b ff 34 bd bf 38 74 bc
       0.03323449 0.09907596 -0.044188898 -0.014906107
000350 26 f0 d4 3b ca a6 2b be da 9c a6 3d b0 9d 67 bb
       0.0064983545 -0.16762844 0.08135386 -0.0035341792
000360 4f dd 95 bc 3f fd 34 3d 54 46 80 3d fd 23 aa 3a
       -0.018294005 0.044186827 0.06263414 0.0012980696
000370 9f 94 bd bd 0f b5 51 bd fd af 8f bc 2c 3b d6 bd
       -0.09256863 -0.05119806 -0.017539972 -0.10460505
000380 7f 8e 26 3d e5 5c 54 3e f0 21 46 be 0e c6 42 bd
       0.04066324 0.20738561 -0.19348884 -0.04755216
000390 75 7a 9c 3d ab a4 09 be aa 53 c4 bb 69 9b 1c be
       0.07640544 -0.13441722 -0.005991419 -0.1529366
0003a0 5c 62 83 3d 6c 4e 12 be e9 e3 05 be 52 ee bb 3c
       0.06415245 -0.14287728 -0.13075222 0.022940788
0003b0 4d 8a 6e bd 02 db ec bd 24 e7 a4 3d db bf ef 3d
       -0.058237363 -0.1156521 0.08051899 0.117065154
0003c0 e6 6f e5 bc 42 22 47 be e0 6b 6f bd b5 ef 0b 3c
       -0.028007459 -0.19446662 -0.058452487 0.008541037
0003d0 60 22 a1 bc 22 4c ba 3d b2 c7 17 be ed 09 ce bc
       -0.019669712 0.090965524 -0.14822271 -0.025151217
0003e0 4e 6f b3 3c 4d 41 06 3d 97 cd 6f 3d 72 90 6b 3c
       0.02190366 0.03277712 0.058545675 0.0143777
0003f0 1a cc 91 3d d0 ae 1f 3c d3 66 9c bd a0 88 c8 bd
       0.071190074 0.009746268 -0.076368 -0.09791684

network_body._body_endoder.seq_layers.2.bias f4 [128]
000000 6b f5 95 bb 70 29 26 3d dd 20 df bb 92 ca cc 3c
       -0.0045763752 0.04056686 -0.0068093375 0.024998937
000010 ba ae b4 3c 6c 71 c0 3b b4 71 4b 3c ef 97 2d bc
       0.022055972 0.005872896 0.012417246 -0.010595306
000020 82 1a a0 3c 56 06 58 3c f5 7b 9b bb c2 57 a9 3c
       0.01954389 0.013185104 -0.0047450014 0.020671729
000030 63 ae d1 3c 6c 41 06 3b a5 86 c5 ba b1 70 fa bb
       0.02559585 0.0020485772 -0.0015070034 -0.0076428284
000040 55 1e 7b bc 62 78 31 3c bc 24 69 3b e8 97 88 3c
       -0.015327056 0.010831924 0.0035574874 0.016673997
000050 88 87 ed b9 e8 8d 74 3a 9c 3f 09 3c 10 82 6d bb
       -0.0004530514 0.0009329007 0.008376982 -0.0036240853
000060 10 3c db bb b1 64 c8 3c 50 6e 3e 3c 7f d9 ee 3a
       -0.0066905096 0.024462076 0.01162298 0.0018222778
000070 a6 2a a8 3c da a2 3a 3c 85 3f b6 3a df d9 6c 3b
       0.020528149 0.011391366 0.0013904428 0.0036140603
000080 51 f6 2a 3c 6b 85 81 3b 4d 06 8d 3b ba 7b f2 3b
       0.010434703 0.0039526722 0.0043037296 0.0074000033
000090 b9 bd 8a 3c b7 7d e2 3b c3 2e 4a 3c 52 36 d4 3c
       0.01693617 0.006911959 0.01234025 0.025904808
0000a0 33 9f cb 3c 1c fc a2 3b b0 e3 39 3c 47 86 1a 3d
       0.024856186 0.0049739014 0.011345789 0.037725713
0000b0 43 ac ed 39 19 c9 3a bc 64 7f 8b 3c 98 57 19 3c
       0.00045332508 -0.0114004845 0.017028518 0.009359263
0000c0 64 94 78 3c 38 3b d0 ba 82 e4 d6 3c cb da c4 bb
       0.015172098 -0.0015886789 0.026232008 -0.0060075275
0000d0 b4 bf fc 3a 24 fc c8 3b 6f d7 b4 3c c6 fc f4 3b
       0.0019283206 0.006133573 0.022075383 0.007476422
0000e0 f7 ba d8 3c ad f8 07 bc 92 96 fe bb 60 ab d2 bb
       0.02645634 -0.008299035 -0.007769414 -0.006429121
0000f0 13 2f 16 3c 64 0b 78 3b 36 af ee 3b a2 93 e2 3b
       0.009166497 0.0037848586 0.0072840704 0.006914572
000100 07 c8 52 3b 71 b2 ac bb 05 ca 61 bc c0 28 3c bc
       0.0032162683 -0.0052702953 -0.013781075 -0.011484325
000110 e4 f4 7e bc 81 68 5b 3c 7e 1a 5b 3c 28 9a 47 3c
       -0.015561316 0.013391615 0.013373015 0.01218275
000120 02 e7 b2 3c 9c d3 87 b9 35 3f a7 3c 47 ea 5a 3c
       0.021838669 -0.00025906868 0.020415882 0.01336152
000130 58 65 ff ba 5a fd 4a bc c5 84 b3 bc b7 8d 29 3c
       -0.0019485159 -0.012389505 -0.021913895 0.010348729
000140 c5 7e 3e 3c 4c ae 60 3c 67 18 64 bb 68 70 a0 39
       0.011626904 0.013713431 -0.0034804584 0.00030601327
000150 29 de 8f 3a fe a7 00 3c 24 c8 4c bc 64 43 38 3c
       0.0010976243 0.007852552 -0.012498889 0.011246536
000160 cb e8 67 bc ce 3f 52 3c ea 90 d5 3c 57 9b 32 3b
       -0.014154623 0.012832595 0.026070077 0.0027253234
000170 53 24 45 bc 19 b9 50 bc 81 a0 b8 39 4a 9e de 3b
       -0.012032586 -0.012739443 0.000352148 0.006793772
000180 67 53 46 3b 36 c2 73 3c ca 98 6e 3c 8f 26 bd 3b
       0.0030262114 0.014877846 0.014562795 0.005772419
000190 e9 a5 c2 bb 65 b9 30 3c ec 4a f4 bb 15 bb 13 ba
       -0.005940188 0.010786389 -0.0074552204 -0.00056354824
0001a0 f4 bd b6 3a ec b9 0c 3d 9a 6d 1d 3a b4 ec 77 3b
       0.0013942108 0.034356996 0.00060054066 0.0037830295
0001b0 7c b4 b6 bb 0a 9d 0e 3b 57 56 17 ba d2 93 94 3c
       -0.0055757146 0.0021761083 -0.00057730585 0.018136892
0001c0 37 98 ba bb 87 11 9a bc 5e ae fc 3a 36 bb 10 3c
       -0.005694415 -0.018807186 0.001927804 0.008833697
0001d0 cb f9 3d bc 7f ff 31 bb e8 83 08 3c 03 cc ca 3c
       -0.0115952 -0.0027160344 0.00833223 0.024755483
0001e0 72 e8 15 bc ff cd 7e bb e1 43 c8 b9 3d 75 5c bb
       -0.009149658 -0.0038880107 -0.00038197546 -0.0033639215
0001f0 22 60 72 3c 75 c2 77 3c 3e c7 fe 3c 94 1b 41 3c
       0.014793428 0.015122046 0.031100865 0.01178636

action_model._continuous_distribution.log_sigma f4 [1, 2]
000000 48 30 e8 3b 12 30 60 bc
       0.0070858337 -0.013683336

action_model._continuous_distribution.mu.weight f4 [2, 128]
000000 9f da c1 bc 08 e7 15 3d 6b 8f 01 bd 78 a5 00 3d
       -0.023663817 0.03659728 -0.031630915 0.031407803
000010 f4 18 d9 bc d8 45 25 3c f2 30 f2 3c 1c ba 14 bc
       -0.026501156 0.010087453 0.029564355 -0.009077575
000020 1b 0b f7 bc 90 af 5c 3c 20 19 47 bc f1 fa 4a 3c
       -0.030156663 0.013469592 -0.012151986 0.012388931
000030 55 14 e4 3c 37 60 19 bd 1b ff 72 3c 4c 25 26 bd
       0.027841726 -0.037445273 0.01483133 -0.040562913
000040 d3 86 50 3a 4d 03 0c 3d 9b 13 51 bc 01 f3 25 3d
       0.00079546607 0.034182835 -0.012761022 0.04051495
000050 97 2a a6 bc a8 ba 0a bc 60 ba b2 3b d0 1b a5 bc
       -0.02028398 -0.008467354 0.0054543465 -0.020154864
000060 12 39 f1 b8 19 20 f9 bc b1 0a ad 3c 07 27 b2 bc
       -0.00011502406 -0.030410813 0.021123262 -0.021747125
000070 c3 16 3a 3c 3c 56 e1 bc 52 f9 85 3b e8 7e 6d bd
       0.011357966 -0.02750694 0.004088559 -0.057982355
000080 dc a9 51 3d 1f 86 26 bc ae bd b0 3c 78 27 1b bd
       0.05118738 -0.010163813 0.021574821 -0.037879437
000090 36 28 29 bd 95 9f a3 3c 9d 84 a7 bc 68 d1 3a 3d
       -0.041298114 0.019973556 -0.020448977 0.04560986
0000a0 44 a2 19 3d 1b fb 4e 3c a9 20 33 3d ad 4f 1b 3d
       0.037508264 0.01263311 0.04373232 0.03791778
0000b0 ef 94 f4 bc 6a c8 10 bc 65 c9 fa 3c c8 0b ca 3c
       -0.029856173 -0.008836845 0.03061361 0.02466382
0000c0 63 b8 47 3d 43 61 09 3c 3d fd 22 bd ae f6 37 bc
       0.04875983 0.008385005 -0.039792288 -0.011228247
0000d0 c6 4e 63 3c 4d 48 57 3c b5 63 21 bd 1c 2e 85 bc
       0.0138737615 0.013139796 -0.03940173 -0.016257338
0000e0 ad 12 8e 3d 58 c7 76 bc 2e 19 aa bc 82 3a 84 bc
       0.06937156 -0.015062176 -0.02076396 -0.01614118
0000f0 a6 31 dc 3c c2 bb 0d bd c7 6e f4 3b c8 3b fa bc
       0.026879143 -0.034602888 0.0074594948 -0.030546084
000100 e1 39 ab 3c 68 4d 23 bd 8a be 55 bc 38 d3 b5 ba
       0.020901622 -0.039868742 -0.013045916 -0.0013872152
000110 ea 20 c4 bb 56 42 1a bd 14 af 0e 3c 67 ff 62 bc
       -0.005985369 -0.03766092 0.008708734 -0.013854838
000120 8a ac 16 bd 44 a9 49 bb 5c 6d 6c 3c 3d ca 24 bc
       -0.03678564 -0.0030771056 0.01443037 -0.010057983
000130 70 95 9b bc 33 fd 9e bb 8c aa a6 ba e7 24 24 bd
       -0.018992156 -0.004851961 -0.0012715622 -0.040074255
000140 83 bc b4 bc a2 05 e4 bc 93 c1 0a 3c e3 12 5a 3b
       -0.022062546 -0.027834717 0.008469003 0.0033275418
000150 5c 94 c5 bc 58 d1 a1 3c 61 8a e5 bc 57 e4 c2 bc
       -0.024118595 0.019753143 -0.028020086 -0.023790522
000160 6a e4 95 bc cb fc bf 3c 7c 94 36 bd 80 fc d6 3b
       -0.018297393 0.02343597 -0.0445752 0.006560862
000170 a0 7a d9 3a 99 fa 0d bd 29 d0 06 bc 67 dd 18 3d
       0.0016592331 -0.034662817 -0.00822834 0.03732052
000180 91 48 ab 3c 06 8e ab 3c 1c ac 5a bd a2 f1 12 bd
       0.020908626 0.020941745 -0.053386793 -0.03587497
000190 b2 f7 c6 3b 98 35 79 3c fb 03 e4 bb 99 d8 0f 3d
       0.006072008 0.015210532 -0.0069584823 0.035118673
0001a0 d6 7f a8 3c 24 f6 c4 3c 0d ca 05 3c 84 67 bd bc
       0.02056877 0.02404315 0.008165848 -0.02312065
0001b0 29 b3 35 bd 16 96 95 bc 27 9e 33 bc fa 83 2b 3d
       -0.044360314 -0.018260043 -0.010962999 0.04187391
0001c0 00 94 76 3c 7c 09 67 3b 8e 28 3e bb 49 07 bf bc
       0.015049934 0.0035253456 -0.0029015872 -0.023318904
0001d0 d8 e0 b6 bc 66 47 b5 bb 08 15 7d 3c 9b 10 d1 3c
       -0.02232401 -0.005532193 0.015446909 0.025520613
0001e0 da 76 4e bc 75 c2 e6 bc c9 4a 6a 3b fc 9a 8b 3c
       -0.012601579 -0.028168896 0.0035750142 0.017041676
0001f0 87 38 de 3c fe c5 1d 3d d5 a8 42 3c 13 2b ef 3c
       0.027126564 0.0385189 0.011881073 0.029195344
000200 72 64 91 3b 00 06 d8 ba 3f 51 58 3c df dc 05 bd
       0.004437023 -0.001648128 0.013202964 -0.032681342
000210 4c 80 04 bd 40 1c f9 bb be 98 94 bc d1 8e b0 bc
       -0.032348916 -0.0076022446 -0.01813924 -0.021552475
000220 68 62 5f bd 56 40 fc bc ba 25 38 3d 31 fc a1 bc
       -0.054537207 -0.030792397 0.044957854 -0.019773575
000230 1c fc 4a 3d ed c2 7c 3c ce 92 76 3b 19 c1 98 bb
       0.049556836 0.015427333 0.0037624124 -0.004661691
000240 c9 eb 1d bd 02 02 e5 3b 0e ab b3 bc e1 34 3a 3c
       -0.03855494 0.0069887647 -0.021932151 0.011365146
000250 eb 1e fd bc b3 f0 8b 3c 00 28 82 bc 0b aa 88 bb
       -0.030898532 0.017082548 -0.015888214 -0.0041706613
000260 d6 0c dc 3c 11 15 3e bd e8 7b db 3b bb 74 81 bc
       0.02686159 -0.04640681 0.0066981204 -0.015802732
000270 ba 24 28 bd b0 9b 29 3c 0a f6 81 bc 8e dd 96 3c
       -0.04105065 0.01035206 -0.01586439 0.018416192
000280 65 8d ab 3c 1e 5a 8d 3c 05 dd 38 bc dc 56 b2 bb
       0.020941446 0.017254885 -0.011283164 -0.0054424834
000290 3a c5 8b bc 9d 6f 28 3b 0c 99 fe bc 13 65 37 3d
       -0.017061818 0.0025701292 -0.031078838 0.044774126
0002a0 85 b6 15 3d 38 3e 68 b9 59 a8 dd bb b9 13 9c 3c
       0.036551017 -0.00022148422 -0.0067644534 0.019052373
0002b0 9c be 12 bd a6 82 d3 37 5b 00 d0 bb 86 f2 f7 3c
       -0.03582631 2.5213998e-05 -0.0063476986 0.030267011
0002c0 0a 18 50 3c 09 ba 06 bd 2a 3b aa 3c df 0c b2 3b
       0.012701044 -0.03289226 0.020780165 0.0054336633
0002d0 f3 7c 38 3d 32 24 7e 3c 01 5c 26 bd 40 e8 ed 3c
       0.045041036 0.015511559 -0.040615086 0.02904141
0002e0 7f 05 d3 bc 45 24 b7 3c 4e ea 9d 3c ce dd 80 bb
       -0.025759457 0.022356162 0.019276764 -0.003932691
0002f0 8f c0 e0 bc dc f5 2e bd dd 2a 86 3c 74 d8 dc bb
       -0.02743557 -0.04271494 0.01637786 -0.0067396704
000300 1f 7c af 3b 9d cd 2e 3c 14 bc 2c 3c 63 3e 0c ba
       0.0053553726 0.010669139 0.010542888 -0.00053498725
000310 02 94 78 ba 04 15 41 bd 91 93 1c 3d 87 1a 4b bd
       -0.0009482504 -0.047139183 0.038226668 -0.049585845
000320 b0 d0 a9 3d 9e f6 96 3c 21 1e 06 3d 46 1d 47 3d
       0.08291757 0.018428143 0.032743577 0.0486119
000330 19 d0 43 bc c6 c1 81 bb 7b f3 e9 3a 5e da dc 3b
       -0.01195147 -0.003959867 0.0017849052 0.0067398986
000340 ab d7 e5 bc 1a 32 00 bd 20 ec be 3c 0d c6 04 bd
       -0.02805694 -0.03129778 0.023305953 -0.03241544
000350 37 af 6a bc 26 12 41 bc e2 12 21 bc f3 26 c6 3c
       -0.014324001 -0.011784112 -0.009831162 0.024188494
000360 e4 f0 b0 3c 52 1b 8d bc d5 48 c1 bb 2a aa 0f bc
       0.02159924 -0.017224941 -0.005898575 -0.008768598
000370 2b 9a 0e 3c b2 93 0e 3b e1 7f c2 3b 68 8f 04 bd
       0.008703749 0.0021755514 0.0059356545 -0.032363325
000380 df 3f ee bc 2f 94 9d bc 5f f2 11 bd 3d 38 4c 3c
       -0.02908319 -0.019235699 -0.035631534 0.01246458
000390 99 63 15 bd 99 d9 f1 bc f6 0b a3 3c 3e 9a b2 bc
       -0.036471937 -0.029522704 0.019903164 -0.021802064
0003a0 49 cb 95 3b 2f b9 81 3d 50 1b 50 bc b6 0c 02 b9
       0.0045713526 0.06334149 -0.012701824 -0.00012402501
0003b0 ca a4 d5 3c 61 db d2 3c 0e a7 2f bc 4b 8a 33 bd
       0.026079554 0.025739374 -0.010720981 -0.04383306
0003c0 57 19 f6 bc ab 00 b4 3a 12 5d 2c bd 23 f5 ce 3c
       -0.03004138 0.0013733109 -0.042080946 0.025263375
0003d0 81 e8 e3 3b f5 b0 93 bc 16 3b 6f 3b dd 6e 0e 3d
       0.006955207 -0.018028716 0.0036503724 0.034773696
0003e0 9a b8 e1 3b 03 e5 75 bc a0 f6 a7 3b 81 06 d3 bb
       0.0068884613 -0.015008214 0.0051258355 -0.0064399843
0003f0 5a 61 de bb 2b 2c 5b bb f6 4e 69 3d 02 54 94 bb
       -0.0067865076 -0.0033443074 0.05696007 -0.004526616

action_model._continuous_distribution.mu.bias f4 [2]
000000 7d 30 88 3b 68 42 3f 3b
       0.004156171 0.0029183868

action_model._discrete_distribution.branches.0.weight f4 [1, 128]
000000 80 bc 09 b9 86 bb c6 3b d0 ee 7b 3a b3 b0 97 3a
       -0.0001313556 0.006064835 0.0009610476 0.0011573046
000010 28 c1 d6 bb 97 5d 49 bc 38 dc 7a bc 88 88 13 3c
       -0.0065537877 -0.01229038 -0.015311293 0.00900472
000020 dd 21 82 bc 92 e6 0c 3c ca aa 7a 3b a4 f1 2e 37
       -0.015885288 0.008599894 0.003824877 1.04274695e-05
000030 6c b1 0f 3c fd d4 54 bc 22 b1 97 bb 92 ba 11 bb
       0.008770328 -0.0129902335 -0.00462927 -0.0022236449
000040 3d cf 90 3b 82 44 51 3a 60 09 5a 3b 5f cd a8 bc
       0.004419236 0.0007982926 0.0033269748 -0.020605741
000050 b6 64 b5 3b 03 d1 2e 3b b1 c1 22 3c b6 a1 ca 3a
       0.0055356873 0.0026674874 0.009933875 0.001545957
000060 6f 81 85 3c 7b 5b 0a bc 37 fc 28 bc 3b 32 33 3c
       0.01629707 -0.008444662 -0.010314039 0.010937269
000070 f6 12 a0 bc 1b df 69 bc 3f 73 1b 3c bc 9e 40 bc
       -0.019540291 -0.014274384 0.009487926 -0.011756595
000080 9f b2 89 bb cf e2 27 3c 27 86 92 bc df 33 48 bb
       -0.0042022015 0.0102469465 -0.017886234 -0.0030548496
000090 83 89 71 3b 63 33 d9 bb 67 cb e4 3b a1 70 9b 3c
       0.0036855645 -0.00662844 0.0069822553 0.018974604
0000a0 83 52 17 bb 22 2b 9d bc 8c ca 20 3c 53 9b 39 3c
       -0.0023089952 -0.019185606 0.009813916 0.011328536
0000b0 33 89 8a 3b f7 b6 f5 bb bb f6 fb bb e9 ae 02 bb
       0.004227781 -0.0074986177 -0.0076893247 -0.001994068
0000c0 7f b7 77 3c f6 a7 c4 3b 4b a3 70 bc 55 ad 4f bc
       0.0151194325 0.006001468 -0.01468737 -0.012675603
0000d0 2a a3 a1 bb d8 4f 8e 3b 02 55 cc 3c fd 18 5d bc
       -0.0049327808 0.004343014 0.024942879 -0.013494727
0000e0 ed 88 df 3b c2 2e ce bb 14 f9 31 3c e2 6c 0b bb
       0.0068217427 -0.006292195 0.0108626075 -0.0021274616
0000f0 6d fa 87 ba d9 db 9a ba 40 47 76 bb e9 3c 3f bc
       -0.0010374315 -0.0011814787 -0.003757909 -0.011672237
000100 e6 d7 a1 3c 6b f9 82 3b a3 c0 22 3c 18 1a 61 3c
       0.019756269 0.003997018 0.0099336235 0.013739131
000110 4f 23 a2 3b f3 3a 4a 3b 2e 4f 41 3c af 53 f1 ba
       0.004948057 0.003085789 0.011798663 -0.001841178
000120 e8 da a1 3b 26 62 82 3b 8f cd e0 b8 3a 47 c8 bb
       0.0049394257 0.0039789854 -0.000107194406 -0.0061120065
000130 4b 4e 92 ba 4f 2d 80 3c 1f 32 b0 3b 10 01 b3 3a
       -0.0011162249 0.015646605 0.0053770686 0.0013656933
000140 f7 35 1d bc a0 3a 41 bc 4f cd 4a bb 60 76 2e bc
       -0.009595386 -0.011793762 -0.0030945127 -0.01064834
000150 42 ab 36 3c e7 f3 11 bc ef c8 ff 3b 31 49 9e 3b
       0.0111492295 -0.0089082485 0.0078059356 0.0048305024
000160 70 b9 ed 3b 12 a9 f2 3a 55 1d 36 3b e0 bc 70 bb
       0.007254772 0.0018513522 0.002778848 -0.0036733672
000170 88 85 da 3b eb 54 86 bb 0d 36 ce 3b ff f1 13 ba
       0.00666875 -0.0040994785 0.0062930644 -0.0005643665
000180 2d 0c 84 3a ad 65 ec bb 27 b7 99 3c 20 bb c6 39
       0.001007443 -0.007214269 0.018764092 0.00037904922
000190 b0 2c f3 3b ab bc 39 bc 61 06 34 3a 1f 13 23 bc
       0.0074210986 -0.011336486 0.00068674056 -0.009953289
0001a0 e4 fd 25 bc 2a 0b aa 3b 27 7b 63 ba 5f 49 20 bc
       -0.010131333 0.005189319 -0.0008677714 -0.009783118
0001b0 50 3b 07 ba 65 16 d8 3b c5 ae 8d 3c ec e1 b8 3a
       -0.00051586796 0.0065944665 0.01729525 0.0014105416
0001c0 b3 c3 55 3b c4 b6 2d ba 77 48 43 3c 42 e5 97 bb
       0.0032617867 -0.00066266605 0.011919132 -0.004635484
0001d0 14 db 0a 3b fa 99 de bb df 14 8b 3a 4f f9 b7 3b
       0.002118771 -0.006793258 0.0010611078 0.0056144367
0001e0 89 f0 35 bc 40 9c 5a bc 4c 5d bd bb 6b b2 d4 bb
       -0.011104711 -0.013342917 -0.005778944 -0.0064909956
0001f0 72 f0 95 3a bb 2c 09 bc 62 a3 16 bb ca 95 b9 3c
       0.0011439456 -0.008372481 -0.0022985567 0.022654433

exp_avg f4 [128, 8]
000000 5e 03 ee 3a c8 88 d2 39 a4 66 0a b9 79 5b 85 ba
       0.0018158962 0.0004015623 -0.00013198942 -0.0010174356
000010 60 94 d8 39 89 60 3e ba 86 23 db 39 b9 24 6d ba
       0.00041309278 -0.00072623097 0.00041797402 -0.00090463046
000020 ba f3 ef 39 00 2a f5 38 96 fe 26 b8 94 be d9 b9
       0.00045767223 0.000116903335 -3.9814586e-05 -0.00041531457
000030 2a 39 dd 38 0c 25 48 b9 ed 67 c3 38 7b 6c 02 ba
       0.00010548749 -0.00019087287 9.317682e-05 -0.00049752713
000040 77 1c 37 39 90 03 8c 38 f3 db 71 ba 6e 83 2f 3a
       0.00017462844 6.676384e-05 -0.00092261954 0.0006695305
000050 e4 30 82 38 89 ba 91 b8 2d 88 8a 39 60 b1 0a ba
       6.20799e-05 -6.948884e-05 0.0002642287 -0.0005290713
000060 aa 82 6f 3a dd 95 ec 38 1c a8 31 39 fb b7 96 b9
       0.0009136597 0.00011281271 0.00016942661 -0.00028747306
000070 da a2 01 39 33 46 13 ba b3 fc bd 39 74 b4 24 ba
       0.00012363066 -0.00056180655 0.00036237165 -0.0006282993
000080 9f 03 03 ba e0 22 fc 38 dc 92 06 ba 94 59 df b8
       -0.0004997793 0.00012022792 -0.0005133578 -0.00010650154
000090 fc b2 fe 38 7e f7 c7 38 78 fd d9 b9 ae 61 e4 b8
       0.00012145002 9.5351585e-05 -0.00041578314 -0.000108900815
0000a0 6d 13 61 ba ae a2 9d 39 8a 59 e0 ba fa 8f 5e ba
       -0.00085859635 0.0003006658 -0.0017116528 -0.0008490082
0000b0 ce 30 a0 39 bd 6e 02 3a c6 fd 64 ba c9 80 ee b9
       0.0003055394 0.0004975608 -0.0008735325 -0.0004549085
0000c0 f9 a2 5f bb a1 ea 2d b9 1d 24 f3 39 de 76 1f 39
       -0.003412424 -0.00016585972 0.00046375478 0.00015207703
0000d0 6b 56 2d b9 96 a8 d0 3a 37 80 8a ba 2b 30 d8 3a
       -0.00016530759 0.0015919383 -0.0010566775 0.0016493847
0000e0 65 2f 37 3b 6d 77 e6 39 ed 64 0b b9 7f de b4 38
       0.0027951833 0.00043957998 -0.00013293671 8.624512e-05
0000f0 5e 81 dc 39 e3 e1 79 ba 5e b9 b2 3a d4 cb a1 ba
       0.00042058056 -0.0009532256 0.0013635566 -0.0012344071
000100 d8 66 42 bb 2e 59 70 b7 23 2c f1 3a fc 73 0e ba
       -0.002966335 -1.43258785e-05 0.0018399995 -0.0005434153
000110 c0 8b 92 b7 9d e3 b4 3a bb 02 81 ba 93 55 f5 3a
       -1.7469632e-05 0.0013800744 -0.0009842733 0.001871752
000120 73 5a dc 3a ab 3e 70 39 9f 39 30 b9 f0 50 f9 37
       0.0016811624 0.00022911529 -0.00016806133 2.9720803e-05
000130 dc 82 6f 39 b4 7b 03 ba 4c 70 4b 3a 52 b7 2f ba
       0.00022841565 -0.00050156866 0.0007760569 -0.0006703037
000140 16 29 12 3b 24 44 4a 39 56 70 a0 ba c2 10 03 3a
       0.002230232 0.00019289606 -0.001224051 0.00049997505
000150 22 fe 30 39 68 7a 7c ba 13 1e 64 3a e0 1e 7a ba
       0.0001687934 -0.0009631277 0.0008701991 -0.0009541344
000160 4c 15 88 b9 10 90 2a 38 da 8f f9 37 7e da 98 b9
       -0.0002595581 4.0665327e-05 2.97501e-05 -0.0002915449
000170 e8 0c 23 38 05 ae c1 38 0b db 79 b9 ae b6 01 39
       3.887425e-05 9.235371e-05 -0.0002382809 0.00012370452
000180 06 5d 06 bb 9f 86 db b8 10 0a 3b 39 e2 e4 66 b7
       -0.0020502224 -0.00010467809 0.00017837458 -1.3762359e-05
000190 b6 50 d5 b8 a1 55 50 3a 76 82 cc b9 be b1 52 3a
       -0.00010171665 0.000794733 -0.00039007113 0.000803735
0001a0 20 c9 1f bb fa f7 62 37 4a 66 49 39 88 f4 0d 38
       -0.0024381354 1.3528386e-05 0.0001920696 3.3844757e-05
0001b0 f4 39 d3 37 f7 2c 13 3a 32 ef fd b9 4c d4 02 3a
       2.5180147e-05 0.0005614305 -0.00048434135 0.0004990741
0001c0 c5 21 20 bb 82 88 41 3a 87 a9 e7 ba 6f 9d 1f bb
       -0.002443419 0.0007382707 -0.0017674424 -0.0024355312
0001d0 f4 e5 3f 3a 1a 0c 07 3b d6 21 42 ba d1 83 4c ba
       0.00073203375 0.0020606578 -0.00074055546 -0.00078016246
0001e0 76 7b ff 3a 6c f5 a2 38 9f 66 b1 39 7c a1 ac 38
       0.001949175 7.770475e-05 0.0003383653 8.231678e-05
0001f0 3d 3d bf 38 d0 9f ac ba c6 36 f3 39 77 8b b7 ba
       9.118996e-05 -0.0013170186 0.0004638938 -0.0014003356
000200 a0 78 a1 bb 3d 7b d8 b9 28 2d 41 3a a4 2d 80 b9
       -0.0049277097 -0.0004129055 0.00073690945 -0.00024448067
000210 2b 0e d5 b9 9e 07 eb 3a b8 af c3 ba 3c 2f 24 3b
       -0.00040637082 0.0017931347 -0.0014929688 0.0025052568
000220 86 73 57 39 c3 7d 1e 39 b2 05 70 39 2a 64 b7 39
       0.00020547034 0.00015114904 0.00022890305 0.00034979108
000230 7d 33 11 39 4a 15 a8 39 96 72 91 39 e6 9c 6b 39
       0.00013847458 0.0003205932 0.00027741928 0.00022469796
000240 44 63 c2 3a 56 6f b8 b9 9e 33 96 39 7d d6 ae 3a
       0.0014830609 -0.00035178167 0.00028648687 0.0013339069
000250 ab cc ab b9 6a ce 21 bb f6 87 c2 39 e1 97 c1 ba
       -0.0003276815 -0.0024689683 0.00037103862 -0.0014769995
000260 1e 08 70 38 ad fb a5 b8 1f ae 37 39 41 66 e5 39
       5.722802e-05 -7.9146914e-05 0.00017517105 0.0004375447
000270 d3 08 9f b8 d2 84 1b b9 be 0c 01 b9 34 75 c2 39
       -7.5833545e-05 -0.00014831431 -0.00012307146 0.00037089887
000280 4c ee 5f ba 09 13 50 b8 e3 7a 83 38 0b d8 a5 b9
       -0.0008542284 -4.9608792e-05 6.269456e-05 -0.00031632217
000290 41 9a 4d b8 f6 b0 03 3a c1 75 a2 b9 a6 23 67 39
       -4.901947e-05 0.00050236227 -0.0003098678 0.00022043157
0002a0 46 52 2c ba 55 c2 89 39 3a a9 03 b9 7d 7b ac b9
       -0.0006573539 0.00026275465 -0.00012556175 -0.00032898402
0002b0 2b 89 6d 39 c0 18 95 3a 58 74 97 37 56 7e 1a 3a
       0.0002265318 0.0011375174 1.805478e-05 0.00058934593
0002c0 3e e4 da 39 a0 13 ae 35 7a c5 2c ba ee e1 6d 39
       0.00041750254 1.2969722e-06 -0.00065907056 0.00022686247
0002d0 14 6c 9a b7 0f 08 2e 3a db bb e3 39 79 6b 83 b9
       -1.8408558e-05 0.0006638774 0.00043436777 -0.0002506634
0002e0 e0 04 99 3a 72 03 13 b9 31 c8 a8 39 2a 43 62 3a
       0.0011674426 -0.00014020296 0.0003219261 0.0008631224
0002f0 32 4e 21 b9 6c 5d 67 ba 10 c3 33 3a 48 5d 41 b9
       -0.00015383287 -0.00088258716 0.00068573747 -0.00018440664
000300 30 d3 98 39 1f 81 8d 37 48 c1 b3 b9 a5 ab 9d b9
       0.00029149046 1.6868637e-05 -0.00034285546 -0.0003007326
000310 fc 83 8b 37 93 5d 54 ba ce 48 9e 39 0e fd 99 ba
       1.6631551e-05 -0.0008101102 0.00030190352 -0.001174839
000320 52 62 bd ba 0c df e9 38 f0 b0 d3 37 f1 01 7b b9
       -0.0014448857 0.000111518515 2.5235553e-05 -0.00023937949
000330 1f 12 f4 38 a9 70 a4 39 3b 76 27 ba 78 b4 58 39
       0.00011638202 0.00031364456 -0.0006388162 0.00020666595
000340 bc 27 b0 bb 00 5d 17 b9 12 8a e5 3a be 99 d9 ba
       -0.0053758305 -0.00014435127 0.0017512462 -0.0016601605
000350 c3 eb f9 b8 d6 94 a1 3a 57 20 27 bb 74 35 b8 3a
       -0.00011917159 0.0012327682 -0.0025501454 0.0014054016
000360 f5 24 28 ba 75 a0 b3 b8 5c 53 9e b9 45 c4 11 39
       -0.00064141984 -8.5652726e-05 -0.00030198216 0.00013901394
000370 43 fb c5 b8 f2 c6 58 37 a8 c5 80 b9 42 1d dd b9
       -9.440493e-05 1.2920924e-05 -0.00024561328 -0.00042174204
000380 68 97 5d 3a 1d ef 48 38 5a 25 4f b8 66 62 40 39
       0.0008453042 4.7906407e-05 -4.9387432e-05 0.00018347203
000390 bd 12 4a 38 b3 1b 30 ba e4 7b 56 39 72 b9 ec b9
       4.8178004e-05 -0.00067179947 0.00020454783 -0.00045151595
0003a0 98 dc cd ba ea 59 62 38 9d 39 55 3a 44 2f 3d b9
       -0.0015706001 5.3966338e-05 0.000813389 -0.00018042052
0003b0 b2 59 4c 38 b9 54 22 3a 0f 42 b7 b9 2f d4 38 3a
       4.8720925e-05 0.0006192434 -0.00034953697 0.0007050661
0003c0 74 49 df 3a 9e 7a 28 b8 ce 9b 37 ba fa d5 6f 39
       0.001703544 -4.0168517e-05 -0.00070041127 0.00022872529
0003d0 2e 4f 92 b8 e6 e1 97 ba 6e 0c 78 39 55 54 8c ba
       -6.976571e-05 -0.0011587709 0.00023655753 -0.0010706285
0003e0 90 92 76 39 d8 fa d6 b6 ba 99 37 b9 6e 96 15 b9
       0.00023514987 -6.406899e-06 -0.00017509508 -0.00014265787
0003f0 6a 23 01 b7 92 4d bd b8 a8 22 32 36 9b 5a d6 b9
       -7.697245e-06 -9.026671e-05 2.654424e-06 -0.00040884767

exp_avg_sq f4 [128, 8]
000000 f9 77 4c 38 42 57 02 36 b2 a1 3f 38 c1 3d e8 37
       4.8749123e-05 1.94223e-06 4.568854e-05 2.7685312e-05
000010 50 70 f6 35 e9 5b 41 38 a9 aa d2 37 f5 57 01 38
       1.8361116e-06 4.6100384e-05 2.511342e-05 3.0837913e-05
000020 96 90 8d 36 78 ce 1d 34 b1 0b 60 36 70 d3 4d 36
       4.2189595e-06 1.4696877e-07 3.3385406e-06 3.0670453e-06
000030 55 52 13 34 00 9d 96 36 b5 8d 2d 36 dc 7d 13 36
       1.3720394e-07 4.4886256e-06 2.5861493e-06 2.1977967e-06
000040 c5 ff a4 36 3d 13 31 34 d5 cd 5d 36 7e 23 27 36
       4.9173564e-06 1.6491408e-07 3.3051376e-06 2.4905598e-06
000050 33 ac 27 34 9b 70 62 36 b9 76 1b 36 b3 32 08 36
       1.5615733e-07 3.374217e-06 2.3165906e-06 2.029509e-06
000060 ae f9 d9 36 99 08 9b 34 96 86 d5 36 30 6a c4 36
       6.4961705e-06 2.8877255e-07 6.3635625e-06 5.853617e-06
000070 c5 e4 92 34 49 28 0a 37 c1 13 79 36 5e 4f ae 36
       2.736107e-07 8.234821e-06 3.711539e-06 5.1948437e-06
000080 8a 5e 05 37 c5 46 93 34 e0 a0 f4 36 4c 79 d2 36
       7.949429e-06 2.7432375e-07 7.290495e-06 6.2726085e-06
000090 09 6f 8a 34 37 a7 de 36 a4 b8 ba 36 80 b8 78 36
       2.5785292e-07 6.635582e-06 5.564727e-06 3.7062273e-06
0000a0 9d c6 56 38 ce 79 e1 35 e6 97 14 38 f1 a2 8f 37
       5.120655e-05 1.6799256e-06 3.5427416e-05 1.7122804e-05
0000b0 d4 7d d9 35 cf 97 ef 37 13 8e f6 37 c6 f1 96 37
       1.6204381e-06 2.8561712e-05 2.9391644e-05 1.7993978e-05
0000c0 a2 6f 08 38 a0 06 c3 35 2a 5d 06 38 f2 dc 0f 38
       3.2528893e-05 1.453056e-06 3.2034855e-05 3.4299628e-05
0000d0 2d 1f b4 35 6a 83 14 38 aa 9a 0a 38 46 f7 9f 37
       1.3420118e-06 3.540834e-05 3.3045806e-05 1.9069423e-05
0000e0 1a f3 06 38 f7 04 a9 35 61 a7 10 38 e6 15 c0 37
       3.2174496e-05 1.2592926e-06 3.448816e-05 2.289838e-05
0000f0 3d 5d a2 35 fa ce d9 37 7c 63 90 37 e7 12 bf 37
       1.2097076e-06 2.5964797e-05 1.7212464e-05 2.2777776e-05
000100 56 12 02 38 92 34 9e 35 2f 27 02 38 78 92 99 37
       3.1011492e-05 1.1787217e-06 3.1030908e-05 1.8307226e-05
000110 70 43 96 35 e2 2c f8 37 1d 1e aa 37 97 eb b6 37
       1.1195498e-06 2.9584804e-05 2.0279602e-05 2.1805796e-05
000120 c2 89 21 37 04 0b e9 34 20 ce 48 37 3a 69 f3 36
       9.628422e-06 4.3407647e-07 1.1968921e-05 7.2542143e-06
000130 70 89 de 34 74 01 00 37 ea e1 c9 36 71 81 a5 36
       4.145072e-07 7.629733e-06 6.0165667e-06 4.932452e-06
000140 9a 20 13 38 03 3f cb 35 29 be 0a 38 ec 8c cd 37
       3.5077894e-05 1.5143017e-06 3.3078864e-05 2.4503526e-05
000150 91 94 c4 35 3d 34 1e 38 e2 31 aa 37 38 28 b9 37
       1.4646376e-06 3.7718786e-05 2.0288808e-05 2.2072447e-05
000160 f6 cd 17 37 e6 9c 8c 34 e3 91 94 36 ac ba a0 36
       9.048255e-06 2.619119e-07 4.427727e-06 4.790103e-06
000170 c7 ba 7d 34 82 b0 eb 36 68 6f 00 37 37 5f 73 36
       2.363041e-07 7.024094e-06 7.655333e-06 3.6265244e-06
000180 bf fe 25 37 c3 73 ed 34 80 8f 31 37 72 c1 47 37
       9.894079e-06 4.4228918e-07 1.0583433e-05 1.1906364e-05
000190 5b 2e d8 34 6c 12 44 37 73 98 2f 37 26 91 de 36
       4.0266863e-07 1.16868e-05 1.0466308e-05 6.633013e-06
0001a0 1c c7 9a 37 50 5c 57 35 e4 6d aa 37 75 77 92 37
       1.8450948e-05 8.0228074e-07 2.0316751e-05 1.7460183e-05
0001b0 9c 63 47 35 db b8 e8 37 1b b0 70 37 c0 11 5d 37
       7.427823e-07 2.7742635e-05 1.43461175e-05 1.3176759e-05
0001c0 1c 43 56 38 53 aa 09 36 2a 4f 31 38 91 67 03 38
       5.1084076e-05 2.0513733e-06 4.2273816e-05 3.1329288e-05
0001d0 a7 23 04 36 a0 d2 1d 38 04 c0 15 38 c4 a4 bb 37
       1.9690285e-06 3.7627877e-05 3.5703197e-05 2.2368862e-05
0001e0 9a a5 4b 37 7d 85 db 34 2e 8a 27 37 d1 29 fb 36
       1.21383e-05 4.0889054e-07 9.986148e-06 7.485251e-06
0001f0 ed ae d4 34 3d 5d e5 36 4a de c3 36 97 c8 d4 36
       3.9615352e-07 6.835586e-06 5.8373307e-06 6.341444e-06
000200 c3 ef 16 38 3f 00 c3 35 64 95 2f 38 83 6b a1 37
       3.5986082e-05 1.4528704e-06 4.1862382e-05 1.924276e-05
000210 d9 3b c0 35 2f 70 f4 37 da 8b 7e 37 c0 0e b7 37
       1.4322533e-06 2.9139306e-05 1.51721415e-05 2.1822168e-05
000220 00 d3 4a 36 d9 ea 1c 34 90 36 5f 36 23 e2 89 36
       3.0223164e-06 1.4614069e-07 3.326135e-06 4.109244e-06
000230 09 a6 15 34 f1 dd 71 36 8f 3b 25 36 ca 0f 0d 36
       1.393711e-07 3.6040985e-06 2.4621584e-06 2.1019828e-06
000240 79 1b 2b 37 52 3c eb 34 25 f0 49 37 c3 b2 1f 37
       1.0198791e-05 4.381605e-07 1.2036447e-05 9.51876e-06
000250 a0 8b dd 34 30 af 54 37 a8 dc e0 36 eb f8 04 37
       4.1266048e-07 1.2676974e-05 6.701408e-06 7.925769e-06
000260 f5 49 e9 36 06 2e 80 34 7b dc aa 36 5f 3d db 36
       6.952551e-06 2.3875344e-07 5.092062e-06 6.533853e-06
000270 61 3f 6c 34 85 64 b8 36 66 d9 ed 36 7c f1 44 36
       2.200227e-07 5.4953293e-06 7.088459e-06 2.9346838e-06
000280 9f 4a 10 36 77 89 08 34 af 22 81 36 76 20 36 36
       2.1501107e-06 1.2715996e-07 3.8485373e-06 2.7139008e-06
000290 ea 67 01 34 8d 8d 51 36 44 a9 b7 35 21 df 29 36
       1.2051865e-07 3.122582e-06 1.3683825e-06 2.531284e-06
0002a0 66 98 9e 36 f8 e0 58 34 9b 47 a1 36 09 af ae 36
       4.7265085e-06 2.0198411e-07 4.80651e-06 5.205981e-06
0002b0 a6 07 4c 34 d6 52 ae 36 d4 7c 6c 36 c6 ce 13 36
       1.9001763e-07 5.1952475e-06 3.52394e-06 2.2025065e-06
0002c0 47 86 90 36 38 98 69 34 ef e3 a3 36 10 8e 8b 36
       4.3071664e-06 2.1755193e-07 4.8843135e-06 4.159061e-06
0002d0 a8 95 62 34 d5 2a aa 36 75 7e 56 36 1e 25 57 36
       2.1102335e-07 5.071381e-06 3.1962093e-06 3.2059102e-06
0002e0 3c 75 e9 36 ff a6 6e 34 23 08 c8 36 70 1d 86 36
       6.957589e-06 2.222623e-07 5.9614117e-06 3.996938e-06
0002f0 2a ab 64 34 e6 8a d8 36 92 91 8b 36 fd ba 51 36
       2.1296424e-07 6.4534715e-06 4.1594694e-06 3.1252268e-06
000300 46 52 91 37 a6 03 53 35 85 92 8a 37 83 0d 88 37
       1.7323659e-05 7.8608934e-07 1.651911e-05 1.6218755e-05
000310 39 14 4a 35 c1 cc ab 37 bc 77 57 37 49 68 22 37
       7.528029e-07 2.0480134e-05 1.28428765e-05 9.680233e-06
000320 0c 89 22 37 17 6c bc 34 81 a4 17 37 6d b2 f1 36
       9.687861e-06 3.5096375e-07 9.038603e-06 7.203131e-06
000330 18 b7 b0 34 18 ac 29 37 42 c4 ce 36 20 43 c6 36
       3.2915773e-07 1.0113254e-05 6.162126e-06 5.908674e-06
000340 31 1a 17 38 50 1e 07 36 8a 77 71 38 bd d0 00 38
       3.6025598e-05 2.0134212e-06 5.7570207e-05 3.071198e-05
000350 76 08 04 36 9e b8 2d 38 8a 31 ad 37 41 30 06 38
       1.9674458e-06 4.1418352e-05 2.0646276e-05 3.199303e-05
000360 30 43 a2 36 36 aa 73 34 ed b2 d6 36 a8 82 8e 36
       4.835798e-06 2.2693061e-07 6.3985267e-06 4.24714e-06
000370 c8 79 71 34 fc 5a 4d 36 72 c0 f3 35 03 6a 32 36
       2.2489178e-07 3.060034e-06 1.816092e-06 2.6585774e-06
000380 fd c0 f4 36 07 12 b2 34 0c cc 3b 37 f6 4e b7 36
       7.2942335e-06 3.31682e-07 1.1193577e-05 5.4630173e-06
000390 a4 18 aa 34 4d a4 d9 36 27 b2 96 36 25 82 ce 36
       3.1682896e-07 6.486231e-06 4.491088e-06 6.1544292e-06
0003a0 1a f8 14 37 01 47 b5 34 c2 02 1d 37 07 68 28 37
       8.879253e-06 3.376554e-07 9.358571e-06 1.0037801e-05
0003b0 75 44 a8 34 1c 09 22 37 48 64 0e 37 a7 18 9e 36
       3.1342248e-07 9.658073e-06 8.487208e-06 4.711637e-06
0003c0 00 b9 ce 37 0f a3 91 35 fd 43 f0 37 1c c2 ab 37
       2.4643261e-05 1.0850798e-06 2.8641889e-05 2.0475178e-05
0003d0 50 7d 8b 35 7f 66 0d 38 ca 04 7c 37 59 9e ae 37
       1.0392778e-06 3.3712477e-05 1.50214855e-05 2.0816153e-05
0003e0 0c 87 23 37 cc 70 ee 34 63 0d 29 37 a1 95 25 37
       9.747e-06 4.4413025e-07 1.0076302e-05 9.869605e-06
0003f0 50 24 e5 34 f4 0c 30 37 5e 1b ec 36 af 3b d6 36
       4.2680995e-07 1.0493433e-05 7.036534e-06 6.384645e-06
