ML-Agent_EconomicModel/results/RollerBall/RollerBall/RollerBall-47928.onnx (onnx, 75401 bytes, 8 tensors)

action_model._continuous_distribution.log_sigma f4 [1, 2]
00000000: b4c9 40bd 4bc5 5abd
-0.04706736 -0.05341081

action_model._continuous_distribution.mu.bias f4 [2]
00000000: be09 a9bc 6007 e1bc
-0.020634528 -0.027469337

action_model._continuous_distribution.mu.weight f4 [2, 128]
00000000: 8655 3ebd 67e4 d93d eca2 f1bc ff55 af3d
00000010: 108d 12bd 9551 453b 2ed4 d53c f6e9 743d
00000020: 6945 2dbc 8c3a e7bc 5789 cabc d978 a43c
00000030: a700 303d 32c3 16bd 5184 d83c ca64 4dbd
00000040: 1b7b 223d 37c5 843d 61f9 17bd 6e89 533d
00000050: 0fc0 dabc 5b26 82bb ccf5 14bb 325a 81bc
00000060: ef2b 10bd c8c9 3bbd 3b28 403d 0b0b 1cbc
00000070: 147c bbbc ab30 bbbc d9b6 83bc 695a 7cbd
00000080: 92ff d63d 1455 86bc 0078 483d ec51 42bd
00000090: 78d6 63bd cd24 483d bd44 72bd a23d 8f3d
000000a0: 483b 613d 5c90 8a3c d497 7c3d c2fc a03d
000000b0: 91f5 593b a70f 88bd 737a fb3c 75d5 713d
000000c0: 491b 193d 440d c239 ed21 2ebd 6d22 86bc
000000d0: aef0 d53c 8219 7a3b 06cf e1bd 073d 1fbd
000000e0: c742 9e3d 150b 0bbd c037 a8bc 7374 a8bc
000000f0: 9cb6 083d 3660 81bd 8997 9e3c 4107 d4bc
00000100: ecf1 403d 5d97 7cbd 1226 c5bb 58b4 5d3d
00000110: 6c07 623d d012 43bd 80e9 503d 1d31 18bd
00000120: a065 9ebd b60d 4ebc 237a b73c 66ab 62bd
00000130: c5ae 83bd 5f4b 063c a736 82bc dee1 57bd
00000140: 58de 673b 06db f4bc 4fd0 eb3c d405 873c
00000150: 1ec2 21bd c02d 843d 5e0a 0fba 7ca2 29bd
00000160: 32e7 67bd eca2 b83c f1e9 4dbd 62fd 00bc
00000170: 5264 be3a e723 863c cf46 2bbd be35 6a3d
00000180: 7f32 0e3d b3a0 e33b d388 52bd 005a 25bd
00000190: 2bd0 2dbc e605 85bc d92d 8f3b c518 583d
000001a0: 814a fb3c 7872 743c 6002 ad3c 8e57 a6bc
000001b0: 1158 bebd c9cb 43bc 351d ffbc 59f4 283d
000001c0: 5476 a83c fe6a bc3c e337 863c 2093 35bd
000001d0: 33b4 bdbc 98dd 913c 5224 503d 8734 773d
000001e0: ff3d 8ebc 6c95 00bd 0061 8fbc 2923 9e3d
000001f0: cfb5 3f3d 9713 2a3d 2dd0 b2bc 48b9 cf3c
00000200: 2708 0f3d d98a 8e3c 16a5 203d 9c85 f13c
00000210: 65a5 b4bd ab42 0dbb adcd b7bc 00ee 42bc
00000220: 23b8 97bd b545 4abd b25b 863d e400 19bd
00000230: ed4e 903c 6ec4 3d3d edc6 233c e73a 143c
00000240: 5d82 c83c 860d 23bc 7800 a0bd 5f69 2a3c
00000250: 1832 82bd 8a04 1f3d 6d2c 95bd 8dfd f33c
00000260: 336b 803d 1ae3 a3bd 95b2 26bc 30cc e9bc
00000270: 206f 89bd 9f9b 1f3d 3ef1 92bd 526c 433c
00000280: b7c3 7e3d f1a5 0e3d b896 55bb 638b e93b
00000290: 5dc5 64bd 5d56 d63c 435a 80bd 983a 263d
000002a0: 3ef8 dc3c 6edc 4c3c 50e4 123d dc70 103c
000002b0: 5391 04bd 9e1a 713d 0f77 2fbc 6595 ed3c
000002c0: c931 463c 0ec9 10bd f3f1 273d d1da 763d
000002d0: b97f b03d dbda 8b3c 8019 e7bd 173b 8c3d
000002e0: c736 1cbd c721 693d 78b3 ad3c 9ada fa3b
000002f0: 73b0 06bc daf1 12bd cfce 5a3c 34a8 1abc
00000300: 7783 f13c 5b41 61bb f26e af3c ec46 15bd
00000310: 76c3 6ebc 76ea 9dbd c39d 763d 3f8d 83bd
00000320: 2582 0b3e 3a63 0b3d dffd 513d 7824 b63d
00000330: 29a2 b2bc 3ced 393d 6fae 4bbd 57da a43c
00000340: 5cab 43bd 74fc 92bd 9e9b 223d 10e2 f3bc
00000350: 595f 3dbd 9472 92bc b1ae 3d3a 63e3 c03c
00000360: 6959 8c3d f6d1 97bb 060f 64bc 9ae7 96bc
00000370: 9f49 473d a3c9 ffba fbcc 253d 550e 9fbd
00000380: d118 f0bc f478 bfbc 5c43 6bbd 8544 7abb
00000390: cca6 fabc bd93 9ebd 3b5f de3b 0341 14bc
000003a0: 97de 88bb 7fd1 a93d 2551 dc3a f816 adbc
000003b0: 372b c93b 0c6a 863d 53ea 65bd 2b3d abbd
000003c0: b8e2 e73b 0a40 8f3b 0f69 75bd d8c0 f33c
000003d0: cc6f 2c3c 0539 79bd d308 7f3d f122 ee3c
000003e0: 666f 2a3c 2ca5 27bd 4369 d23c 1102 8c3d
000003f0: 8ce2 273d ba06 0dbd 90bb a13d dc00 893c
-0.04646828 0.106392674 -0.029496633 0.08561324 -0.03577906 0.003010844 0.026102152 0.059793435
-0.010575631 -0.02822616 -0.024723692 0.020077156 0.042969372 -0.036807247 0.02643028 -0.050144948
0.039668184 0.06482928 -0.03710306 0.051644735 -0.026702909 -0.0039718575 -0.0022729514 -0.015790079
-0.03519815 -0.04584673 0.046913367 -0.009524117 -0.022886313 -0.022850355 -0.0160784 -0.06160966
0.10497965 -0.01639799 0.048942566 -0.047441408 -0.055624455 0.04886322 -0.059147585 0.069941774
0.054988176 0.016914539 0.061668232 0.0786071 0.0033257941 -0.066436104 0.030698037 0.05904146
0.037379537 0.00037012447 -0.042512823 -0.016373837 0.026115742 0.0038162176 -0.11025815 -0.03887656
0.077275805 -0.033946116 -0.020534396 -0.02056334 0.033377275 -0.06317179 0.019359367 -0.025882365
0.047105715 -0.06166779 -0.006016501 0.054127067 0.05518286 -0.047625363 0.051003933 -0.037156213
-0.07734227 -0.012576511 0.022397107 -0.05533924 -0.06429819 0.008196681 -0.0158952 -0.052705638
0.003538033 -0.029889595 0.028785853 0.016482271 -0.039491765 0.064540386 -0.0005456562 -0.041414723
-0.05661697 0.022538625 -0.050271932 -0.007872911 0.0014525747 0.016374541 -0.041815575 0.05718016
0.034716126 0.006946647 -0.051400017 -0.040369034 -0.010608713 -0.016238164 0.004369479 0.052757997
0.030675175 0.01491987 0.021119297 -0.020305421 -0.09294141 -0.011950442 -0.031141857 0.041248653
0.020564236 0.023000237 0.01638407 -0.044329762 -0.023157215 0.01780586 0.050815888 0.06035283
-0.017363546 -0.0313925 -0.017502308 0.0772155 0.046804246 0.04152259 -0.021827782 0.025356904
0.034919884 0.017400192 0.03921994 0.029482655 -0.08820609 -0.002155463 -0.022436941 -0.011897564
-0.07408168 -0.049382884 0.06560458 -0.037354365 0.01761576 0.046329908 0.009996158 0.009047247
0.024476225 -0.009951955 -0.078125894 0.010401099 -0.06357211 0.03882269 -0.07283864 0.029783988
0.06270447 -0.080023006 -0.010174413 -0.028539747 -0.067106485 0.03896677 -0.071749195 0.011927681
0.062198367 0.034826223 -0.0032591056 0.007127212 -0.055852283 0.026164228 -0.06267216 0.040583223
0.02697384 0.012503726 0.035862267 0.00881597 -0.032365154 0.058863275 -0.010709538 0.0290019
0.012096831 -0.03534799 0.041002225 0.060267273 0.08618111 0.017072132 -0.112841606 0.06847208
-0.038138177 0.05691698 0.021203741 0.007655454 -0.00822078 -0.03587518 0.013354971 -0.009439517
0.029481633 -0.003437123 0.021415208 -0.03644459 -0.014572969 -0.077107355 0.060209047 -0.06423425
0.13623865 0.034030177 0.0512675 0.088936746 -0.02180584 0.04539226 -0.0497269 0.020123644
-0.047770843 -0.07177058 0.03969919 -0.029770881 -0.04623351 -0.0178769 0.0007235809 0.023545926
0.06852991 -0.0046331836 -0.0139195975 -0.018420983 0.048654195 -0.0019515048 0.040478688 -0.077664055
-0.029308708 -0.023373105 -0.057437286 -0.0038187813 -0.030597113 -0.077430226 0.0067862547 -0.009048703
-0.0041769254 0.08291911 0.0016808851 -0.021129116 0.006139185 0.065631956 -0.056131672 -0.08361276
0.0070765875 0.0043716477 -0.059914645 0.029755041 0.010524701 -0.060845394 0.062264275 0.029069396
0.010402536 -0.040929005 0.025684958 0.06836332 0.040987536 -0.034430243 0.07897103 0.016724043

action_model._discrete_distribution.branches.0.weight f4 [1, 128]
00000000: 80bc 09b9 86bb c63b d0ee 7b3a b3b0 973a
00000010: 28c1 d6bb 975d 49bc 38dc 7abc 8888 133c
00000020: dd21 82bc 92e6 0c3c caaa 7a3b a4f1 2e37
00000030: 6cb1 0f3c fdd4 54bc 22b1 97bb 92ba 11bb
00000040: 3dcf 903b 8244 513a 6009 5a3b 5fcd a8bc
00000050: b664 b53b 03d1 2e3b b1c1 223c b6a1 ca3a
00000060: 6f81 853c 7b5b 0abc 37fc 28bc 3b32 333c
00000070: f612 a0bc 1bdf 69bc 3f73 1b3c bc9e 40bc
00000080: 9fb2 89bb cfe2 273c 2786 92bc df33 48bb
00000090: 8389 713b 6333 d9bb 67cb e43b a170 9b3c
000000a0: 8352 17bb 222b 9dbc 8cca 203c 539b 393c
000000b0: 3389 8a3b f7b6 f5bb bbf6 fbbb e9ae 02bb
000000c0: 7fb7 773c f6a7 c43b 4ba3 70bc 55ad 4fbc
000000d0: 2aa3 a1bb d84f 8e3b 0255 cc3c fd18 5dbc
000000e0: ed88 df3b c22e cebb 14f9 313c e26c 0bbb
000000f0: 6dfa 87ba d9db 9aba 4047 76bb e93c 3fbc
00000100: e6d7 a13c 6bf9 823b a3c0 223c 181a 613c
00000110: 4f23 a23b f33a 4a3b 2e4f 413c af53 f1ba
00000120: e8da a13b 2662 823b 8fcd e0b8 3a47 c8bb
00000130: 4b4e 92ba 4f2d 803c 1f32 b03b 1001 b33a
00000140: f735 1dbc a03a 41bc 4fcd 4abb 6076 2ebc
00000150: 42ab 363c e7f3 11bc efc8 ff3b 3149 9e3b
00000160: 70b9 ed3b 12a9 f23a 551d 363b e0bc 70bb
00000170: 8885 da3b eb54 86bb 0d36 ce3b fff1 13ba
00000180: 2d0c 843a ad65 ecbb 27b7 993c 20bb c639
00000190: b02c f33b abbc 39bc 6106 343a 1f13 23bc
000001a0: e4fd 25bc 2a0b aa3b 277b 63ba 5f49 20bc
000001b0: 503b 07ba 6516 d83b c5ae 8d3c ece1 b83a
000001c0: b3c3 553b c4b6 2dba 7748 433c 42e5 97bb
000001d0: 14db 0a3b fa99 debb df14 8b3a 4ff9 b73b
000001e0: 89f0 35bc 409c 5abc 4c5d bdbb 6bb2 d4bb
000001f0: 72f0 953a bb2c 09bc 62a3 16bb ca95 b93c
-0.0001313556 0.006064835 0.0009610476 0.0011573046 -0.0065537877 -0.01229038 -0.015311293 0.00900472
-0.015885288 0.008599894 0.003824877 1.04274695e-05 0.008770328 -0.0129902335 -0.00462927 -0.0022236449
0.004419236 0.0007982926 0.0033269748 -0.020605741 0.0055356873 0.0026674874 0.009933875 0.001545957
0.01629707 -0.008444662 -0.010314039 0.010937269 -0.019540291 -0.014274384 0.009487926 -0.011756595
-0.0042022015 0.0102469465 -0.017886234 -0.0030548496 0.0036855645 -0.00662844 0.0069822553 0.018974604
-0.0023089952 -0.019185606 0.009813916 0.011328536 0.004227781 -0.0074986177 -0.0076893247 -0.001994068
0.0151194325 0.006001468 -0.01468737 -0.012675603 -0.0049327808 0.004343014 0.024942879 -0.013494727
0.0068217427 -0.006292195 0.0108626075 -0.0021274616 -0.0010374315 -0.0011814787 -0.003757909 -0.011672237
0.019756269 0.003997018 0.0099336235 0.013739131 0.004948057 0.003085789 0.011798663 -0.001841178
0.0049394257 0.0039789854 -0.000107194406 -0.0061120065 -0.0011162249 0.015646605 0.0053770686 0.0013656933
-0.009595386 -0.011793762 -0.0030945127 -0.01064834 0.0111492295 -0.0089082485 0.0078059356 0.0048305024
0.007254772 0.0018513522 0.002778848 -0.0036733672 0.00666875 -0.0040994785 0.0062930644 -0.0005643665
0.001007443 -0.007214269 0.018764092 0.00037904922 0.0074210986 -0.011336486 0.00068674056 -0.009953289
-0.010131333 0.005189319 -0.0008677714 -0.009783118 -0.00051586796 0.0065944665 0.01729525 0.0014105416
0.0032617867 -0.00066266605 0.011919132 -0.004635484 0.002118771 -0.006793258 0.0010611078 0.0056144367
-0.011104711 -0.013342917 -0.005778944 -0.0064909956 0.0011439456 -0.008372481 -0.0022985567 0.022654433

network_body._body_endoder.seq_layers.0.bias f4 [128]
00000000: ad72 473b e710 d9bd 8c6f d53c fe87 8dbd
00000010: b7e5 15bc 55d5 86bc 8f8c 7c3c 50a8 ccbc
00000020: fefc 87bb 9ed6 2a3d 3c27 963d d8a0 8b3c
00000030: 3520 c5bc 192b 0dbd ee4b 2dbc fc2a 233d
00000040: 3d84 413d efa2 0bbe 8fff 94bc d0be febc
00000050: 13e9 b13b 13a6 7abd d2f9 4d3d 0362 29bc
00000060: c842 ad3c 4b49 77bd d70f bd3c d326 e2bd
00000070: b303 24bb 0bf2 6ebd 490a eb3c 47d5 ae3c
00000080: d51d 1c3d a2f1 0d3d 9e62 a7bd ca31 a7bd
00000090: 0782 8cbc 9ef6 d6bc 2dc6 4b3b d9aa 303d
000000a0: b229 10be 475d 723d 589c 16bd c783 2c3c
000000b0: abab b23c 90a3 41bd 2c48 6ebc 0bc8 2c3c
000000c0: 17ef 44bd bb24 ab39 a4e0 2cbd 3b39 84bd
000000d0: 08bc 12bb 0be3 c63c 10e9 3bbd ab05 b33d
000000e0: fbf6 c03c b9a5 0bbd c202 a83c 1fb8 24bd
000000f0: 8bfd fc3c 68e9 d43c 04d1 c7bd 9044 a73b
00000100: e8d8 64bc 9576 373a 8fa3 abbb aa26 50bd
00000110: f940 afbc aaba a43d fca5 793d dac2 32bd
00000120: 5315 dabc f03e 203d 678b 11bc 681d 25bd
00000130: 9234 aabc 2eaa 593d 5ea2 543d 10da 54bd
00000140: 1325 3ebc ed7f 92bd 7a18 fcbc 4826 5e3c
00000150: 1331 423d 5e75 f9bd ceb6 6a3c 2949 17bd
00000160: 2576 943b 46da 223b d707 a13d 96f0 f8bd
00000170: 959c 403d 1ef3 9d3c 053d 2ebb a236 fbbb
00000180: da8b bfbc b93b a03c 67aa 2dbd ee93 33bc
00000190: a0a9 6c3d 78a2 033c 5154 6bbb 6a2a 58bd
000001a0: 5686 4ebd 9a99 84bd 909f 10bd 07fb 873d
000001b0: f1b1 89bc 4ab0 8d3d bb5f 62bd cc6c c33c
000001c0: cbdf 44bd dc7c 67bc 44ba 34bd 06b5 44bd
000001d0: 7ce4 143d 49ea 8a3c fa08 b63b ba82 cd3b
000001e0: 6720 273d 4601 22ba 0387 753c aadb b3bc
000001f0: e982 61bc f147 c6bd 6f3c edbc a63d 2abd
0.0030433342 -0.10598927 0.026054166 -0.06910704 -0.009149007 -0.016459147 0.015414371 -0.024982601
-0.004150032 0.04170858 0.07331702 0.01704447 -0.02406321 -0.03446493 -0.010577185 0.039835915
0.047245253 -0.13636373 -0.018188266 -0.031096846 0.005429396 -0.061193537 0.050287075 -0.010338309
0.021150008 -0.060372632 0.023078842 -0.110425614 -0.002502662 -0.0583363 0.028691428 0.021341933
0.038114388 0.034654267 -0.081731066 -0.081637934 -0.017151846 -0.026240643 0.0031093464 0.043131683
-0.14078405 0.059170987 -0.036770195 0.010529465 0.021810373 -0.047275126 -0.014543574 0.010545741
-0.048079576 0.00032643028 -0.04220642 -0.06456228 -0.0022389907 0.024278184 -0.045876563 0.087413155
0.02355527 -0.034093592 0.020509128 -0.040214654 0.030882617 0.025990203 -0.097566634 0.005104609
-0.01396773 0.0006998566 -0.0052380036 -0.050818123 -0.021393286 0.08043416 0.06094931 -0.043642856
-0.026621496 0.039122522 -0.008883334 -0.040311247 -0.02077702 0.05314081 0.051912658 -0.051965773
-0.011605519 -0.07153306 -0.03077339 0.013558932 0.047410082 -0.12180589 0.014325811 -0.036935005
0.0045306855 0.002484934 0.078628235 -0.12155263 0.04702433 0.019280966 -0.0026586663 -0.007666425
-0.023382116 0.019559728 -0.042398836 -0.010960562 0.057778955 0.008034341 -0.003590841 -0.052774824
-0.05042108 -0.0647461 -0.03530842 0.066396765 -0.016808482 0.0691839 -0.055267077 0.02385559
-0.048064988 -0.01412889 -0.04412295 -0.0480242 0.036350712 0.016957419 0.0055552693 0.0062716873
0.040802386 -0.00061799993 0.014985803 -0.02195533 -0.013764122 -0.096816905 -0.028959481 -0.0415627

network_body._body_endoder.seq_layers.0.weight f4 [128, 8]
00000000: a59f 1d3f cc99 ac3c cdb1 c7be 1c74 bf3d
00000010: 2597 ebbe ff48 d2be 3c46 e2be c5bc 373f
00000020: 52ae 5c3e e302 73be 009d a3bd 7b64 333f
00000030: 2747 39bf 4388 ea3e a478 5cbd aacc cdbe
00000040: 1cc9 efbe 6bd8 1fbf 2990 9c3d dbb6 c63e
00000050: 22e6 e23e 5458 9cbd e8e8 f83b 9540 c6bd
00000060: 8dc4 0fbc 26a5 77be 1658 b6be f179 8e3e
00000070: 6d50 34be fb27 20bf 1f68 083f 2e31 203e
00000080: 2834 fdbe d6b2 abbd cae7 213e edcc 7a3e
00000090: 1a4a 12bf a4e4 9bbd 0dbc d6be b0ab a03e
000000a0: 0a94 d1be b896 ca3e 0e3d 0d3d e4a2 57bd
000000b0: 4aee aa3d 400f 143e 142d 9ebe b2bb 07be
000000c0: d6f4 a9be aaa3 453e 9187 7f3e d160 8ebe
000000d0: e184 623e fbd2 f5be d64d 97bc 1dda debe
000000e0: c949 f63d eda4 123e b66b 6cbe 5ad8 383e
000000f0: fa22 9dbe 40a0 1ebe c2fc 6a3e ac06 18be
00000100: d651 0a3e f7d5 383e 45e5 9e3e 75fc 8c3e
00000110: 7152 3f3e 6074 0bbf e840 2bbe a732 bb3e
00000120: 98ca f43d e4b8 a53e f3ec 90be 2236 1dbf
00000130: 3cbc 1f3f e75d b53e 2651 bf3e 9ede ec3d
00000140: 0bc3 2fbe 66c7 193e 3864 f4be 962c 753e
00000150: d43c 3f3f a76a 273f e3bb 3c3e 93ed 95be
00000160: 9d40 a2bd 4402 603e facd 86be 55ea 963e
00000170: 349e 76bf a6ef 163e dcae 19bf 1ae3 d8bd
00000180: 57e8 4f3d 0ab1 483e f1f4 a63e 24f3 11be
00000190: 3326 b6be 082c 29bd be8a 4ebe dd27 cbbe
000001a0: 24ac e7bc e461 2d3e 9118 ad3e 4d33 003e
000001b0: fc1c febe e2fe 2d3e f620 c4be fe2a 6ebe
000001c0: 7271 6bbf 1703 c7be 969c c43e 16b6 09be
000001d0: 33ac febc d987 af3e afca 30be 424a d7be
000001e0: 8a4c 8c3e 8696 8b3e 9027 a7bc 3310 0fbf
000001f0: f49a 973e e98f 56be 7311 98be 6bcf 72be
00000200: d14e d1bd 28d9 f63d 3241 2e3f 2c7b d1bd
00000210: b943 3d3e 7a22 64be fb87 1d3f 24f9 17bf
00000220: b2b7 5c3d 2fe2 2d3e f4eb 853e aaa7 173f
00000230: cbd5 f13e a2a3 f8bd da29 79be 0247 6c3e
00000240: c252 123f 1ae6 be3e 1e79 75be 91b9 e3bd
00000250: 9401 26be 8878 0c3f f136 8bbe 8619 2fbe
00000260: 1afd 773e 9506 39be 9c16 36be 89cd 79be
00000270: e95e 843e b854 c63d 33f4 2abf 5178 70be
00000280: 4e79 083e e8ac 0f3d e841 28be f2bc edbe
00000290: 6e85 043e 35f9 de3c 201b 2a3f b576 4ebd
000002a0: f59b 0fbf effd 23be 5fe0 9c3e 31a6 a73b
000002b0: bc05 9fbe 78a1 cc3e 5746 333e 9891 a0be
000002c0: 8d26 c6bd 0adc 98be f93f 0e3d 4bb2 47bd
000002d0: ac5b 34ba 186f fcbb b608 4d3f 0c95 ad3e
000002e0: 92f5 933e ccfe 3dbf 4569 75be 2753 09be
000002f0: 477f 1fbe cfc3 da3e 3c05 cebe f43b 343e
00000300: 4822 803d dc9d 3c3e 2fdf 143d 6d9b 59bd
00000310: 91ce 553e 52c1 53bf d3e3 91bd 5033 393d
00000320: cf8d 4ebe 59ac f3bd b19e 403e 20a4 7b3e
00000330: 27e3 6f3e f924 dd3d 03f4 0bbe ee00 2b3e
00000340: 72b0 1a3f c73b 62bd 990c a83f 423c 97bd
00000350: 6cc1 f33d 99aa 713e 447d 2d3f a6ab e7be
00000360: e441 b63e 1595 8a3e 1037 a23e 37a6 063e
00000370: 7ca4 b4be 787a e53e ac37 c83e c017 0d3e
00000380: 505d 3f3e 50d7 71be 8266 26bf 2f7d 203e
00000390: a2d9 b93d d079 9bbc 58c0 e4bb fdc9 893d
000003a0: f173 233e 7ccf 45be bea5 b23e fa1f 49bf
000003b0: 03fa 1abe bbcf 6bbe cf99 a9be cc74 423f
000003c0: 3ee5 a43e f5ba 1d3e 9179 30be 88a7 253e
000003d0: 36e0 123d bec8 df3e ea05 81be 0186 b23e
000003e0: 39a8 043f 4124 f3bd b605 a23e a2bb 243e
000003f0: 33ad 93be 9789 93be 7667 4cbf f57c 03bf
0.61571723 0.02106943 -0.3900284 0.09348318 -0.46013752 -0.41071317 -0.4419421 0.71772414
0.21550873 -0.2373157 -0.0798893 0.70075196 -0.72374195 0.45807084 -0.05382599 -0.4019521
-0.46833122 -0.624396 0.07644684 0.38811383 0.44316202 -0.07634035 0.007596124 -0.09680287
-0.008774889 -0.24184093 -0.3561408 0.2782741 -0.17608805 -0.62561005 0.53283876 0.1564376
-0.49453855 -0.083837196 0.15811077 0.24492235 -0.5714432 -0.07611969 -0.41940346 0.31380987
-0.40933257 0.39568114 0.034482054 -0.05264558 0.08346231 0.14458942 -0.30893767 -0.13255194
-0.33194607 0.19300714 0.24954058 -0.2780824 0.22121002 -0.48012528 -0.018469732 -0.43525782
0.12025792 0.14320727 -0.23087963 0.18051282 -0.30690747 -0.15490818 0.22947982 -0.14846295
0.1350778 0.18050371 0.31034294 0.2753636 0.18683793 -0.5447445 -0.16723979 0.36562082
0.11952704 0.32367623 -0.28305778 -0.61410725 0.623966 0.35423204 0.373666 0.11565898
-0.17164247 0.1501747 -0.4773271 0.2394279 0.7470219 0.65397114 0.18431048 -0.29282817
-0.0792248 0.21875864 -0.26329023 0.29475656 -0.9633515 0.14739856 -0.6003244 -0.10590191
0.050758686 0.19598785 0.3260875 -0.14252907 -0.3557602 -0.041301757 -0.20170113 -0.3967885
-0.028280325 0.16931874 0.33807805 0.1251957 -0.49631488 0.16991761 -0.38306397 -0.23258588
-0.9196998 -0.38869545 0.38400716 -0.13448367 -0.03108797 0.3428333 -0.17264818 -0.42048842
0.27402145 0.27263278 -0.020404607 -0.55884093 0.29610407 -0.20953335 -0.29700813 -0.23711936
-0.10220111 0.12053138 0.6806823 -0.10228571 0.18482865 -0.22278777 0.61535615 -0.59364533
0.053886123 0.16980813 0.2615658 0.5924021 0.47233424 -0.121405855 -0.24332371 0.23073962
0.5715753 0.3728493 -0.23971984 -0.11119378 -0.1621154 0.54871416 -0.27190354 -0.1709958
0.24217644 -0.18068917 -0.17782062 -0.24394812 0.2585366 0.096841276 -0.6677887 -0.23483397
0.13327524 0.035077006 -0.16431391 -0.46433216 0.12941524 0.02721844 0.6644764 -0.050406177
-0.56097347 -0.16014837 0.30639932 0.005116247 -0.31059062 0.3996694 0.17507301 -0.3136108
-0.09675322 -0.29855376 0.034728978 -0.048754018 -0.0006880115 -0.007703673 0.80091417 0.33902776
0.28898293 -0.74216914 -0.23965938 -0.13410626 -0.15575896 0.42727515 -0.4023837 0.17600995
0.06256539 0.18419594 0.036345657 -0.05312674 0.2087958 -0.8271686 -0.07123532 0.04521495
-0.20171283 -0.11898107 0.18810536 0.24574327 0.23426495 0.107980676 -0.13667302 0.16699573
0.60425484 -0.05523279 1.3128844 -0.0738454 0.11902127 0.23600234 0.67769265 -0.45248145
0.35597146 0.27066866 0.31682634 0.13149343 -0.35281742 0.4482 0.39104974 0.13778591
0.1868794 -0.23617291 -0.65000165 0.15672754 0.09074713 -0.018978983 -0.006980937 0.06727979
0.15962197 -0.1931743 0.34892076 -0.7856442 -0.15134434 -0.23028462 -0.3312516 0.7595947
0.32206148 0.1540335 -0.17233874 0.1617719 0.035858355 0.43707842 -0.25199825 0.34867862
0.5181919 -0.11872149 0.31644982 0.16087201 -0.28843078 -0.2881591 -0.7984537 -0.51362544

network_body._body_endoder.seq_layers.2.bias f4 [128]
00000000: 1cfc 533a d843 b43d 8443 03bd f7ee 283d
00000010: a58f e03d 2878 19bd b845 44bc 2fb6 3dbc
00000020: 8c30 a43d 9406 303d 806f c13b 27b8 a03c
00000030: f448 32b9 cf8c 8cbc 00bd ffbc 38ea 8fbc
00000040: a7fa 3dbd 1413 3b3c 9ffa 9e3d 7c9c 82bc
00000050: 1987 233d 52fb 0abd 425a 9c3d a196 f3bc
00000060: c340 f93b 7f1e ad3d 26fb 143b a8b0 1e3d
00000070: 218e 813d e692 a0bc 0d8d b23d 0226 89ba
00000080: 6a2b 7f3c 2b04 7bbc 9ecc 843c 77f4 363d
00000090: db9b ba3d e058 203c f5d8 ae3d 4cd5 37bc
000000a0: 238c 2a39 0fd3 38bd f3e9 483c a21e 643d
000000b0: 1001 003d 4a42 383d c7b6 ebbb 7fad 623c
000000c0: d1ce 98bb 7d62 50bd 1017 cf3c 0342 bf3c
000000d0: d102 e33c b05b d1bb 5f3d fc3d 1aef e53c
000000e0: 721c e33c 9329 313a e04f 20bd 9af3 b6bc
000000f0: 4aca 1aba 064e 8a3d 0016 8abc ec52 0abb
00000100: 53dc 663c 50f1 c83c 66d0 40bd 9654 b0bb
00000110: 0841 2bbd e87b 843d 791b b6bb 0e91 493d
00000120: 1a4d 923d ce5d 65bb 233a d23c dad0 323d
00000130: 14f3 853d cb85 7cbc 21a1 d03c d514 b53c
00000140: f105 7c3d f1d1 bc3d 30e7 08bd 88cf 97bc
00000150: 9d0b 203d 0b14 47bc 9d10 33bd 3df3 bd3c
00000160: be12 d23c d2da bdbc eeef 5c3d 72b5 1cbd
00000170: cc83 bdbc bbdf 8fbd bda5 123d 10a6 573d
00000180: aaec 7dbc 0cd6 ca3b fa5f 833d ea4b 25bb
00000190: dd59 703c ed5f 713d 20bf 6fbd 0a99 8fba
000001a0: ad75 6bbc 5007 373d 60cc a1bc a0da bb3c
000001b0: d137 fc3b 51d7 dfba f9c2 5a3d 069a 923d
000001c0: d0a2 59bd 2f15 6ebd dc53 123d 6330 9c3c
000001d0: 66f2 29bd 9a92 213d c092 9a3d 3ce6 1e3d
000001e0: 922f 02bd 2c24 da3c 9a0c 2ebc d7ca 413d
000001f0: 0853 67bb b94b 9dbc 7505 f83c 450e 72bc
0.00080865785 0.08802003 -0.03204681 0.04124352 0.10964898 -0.037468106 -0.011979513 -0.0115790805
0.08017072 0.042975023 0.0059031844 0.01961906 -0.0001700258 -0.017156987 -0.031218052 -0.017567739
-0.04638162 0.011418123 0.07762646 -0.015943758 0.03992376 -0.033931084 0.07634403 -0.029734911
0.007606597 0.08453082 0.0022732704 0.03874269 0.06325937 -0.019601297 0.087183096 -0.0010463598
0.015574316 -0.015320818 0.01621085 0.044666734 0.09111758 0.009786814 0.08537475 -0.0112202875
0.00016264668 -0.045123156 0.012262809 0.055693276 0.031251013 0.044985093 -0.0071934196 0.01383531
-0.0046633263 -0.050875176 0.025279552 0.023346907 0.027711304 -0.006389104 0.12316393 0.028068114
0.027723525 0.0006758209 -0.039138675 -0.022332955 -0.0005904777 0.06753163 -0.016856194 -0.0021106554
0.014090615 0.02452913 -0.047073744 -0.005381177 -0.041810066 0.06468946 -0.005557474 0.0492106
0.07143612 -0.003499854 0.025662487 0.043656208 0.06540504 -0.015412758 0.025467457 0.02210466
0.061529104 0.09219731 -0.033423603 -0.018531576 0.039073575 -0.012150775 -0.043717016 0.023187274
0.025643703 -0.02317563 0.053939752 -0.038258977 -0.023134135 -0.07025095 0.03580259 0.052648604
-0.01549832 0.006190067 0.064147905 -0.002522225 0.014669863 0.058929373 -0.05853188 -0.0010955643
-0.014371318 0.044684708 -0.019750774 0.022931397 0.0076970835 -0.0017077719 0.053408597 0.07158284
-0.053133786 -0.05812567 0.035724506 0.019066041 -0.041490935 0.03944645 0.075475216 0.038793787
-0.031783648 0.026628576 -0.010623122 0.047312584 -0.0035297293 -0.019201146 0.03027604 -0.01477391

network_body._body_endoder.seq_layers.2.weight f4 [128, 128]
00000000: 925e fb3c d914 dc3d 958e 133e 7153 00be
00000010: 3e2d 1b3e a980 9b3c 795d 1ebd ed00 98bd
00000020: 032e 02bb cb43 f5bd 9896 aebd 938f 93bd
00000030: 72e4 0abe ca70 b0bd 0dd9 453d 2d27 01bd
00000040: f1e0 633b b152 623d df0e 1d3d 71e2 29bc
00000050: 2ed3 76bd 637f 223e c4d3 fabc de6a 4c3d
00000060: 0af9 a13c 043b 38bc ecb1 323e 3ddf a53d
00000070: 46b9 863d f2b6 08bd 5e92 35bd 8670 26be
00000080: 84f5 3ebd 7310 8ebd 6f44 c03d 9017 a4bd
00000090: 9381 233e 8591 0abe ac56 d53c ece1 b2bc
000000a0: 38d4 c3ba 9ca0 703d 2b96 3dbe bea8 d23d
000000b0: 66ae d8bd 7f86 453e ff89 07be af60 053e
000000c0: e935 223e 1c56 c23d 81c5 453e f396 e83d
000000d0: 1c87 94bd 4027 17bd f4dc b43c 9a52 c1bd
000000e0: aa6a 3a3e e2df 1abd 15f6 0abe 05dc 91be
000000f0: 4ade 573d b482 573d 7f04 273d 6eec 99bd
00000100: b77e c9bd f684 1a3e 2c31 153d 9cd3 4cbb
00000110: 8fbe 56be ac67 5d3d 3c27 adba 7688 0d3d
00000120: f364 0a3d 513e 98bd f656 8d3d 1e72 2cbb
00000130: c0a4 6d3d 9ba6 5dbe edc4 163d 0fe6 483d
00000140: 2bc1 00be 1a29 40bd 7b32 ebbd e300 533d
00000150: 8f61 39be 0c3d ba3d 8eaf b9bd fc21 21bd
00000160: d29f 4b3d a339 873d 0002 2bbe 5da3 bc3d
00000170: 11ad a13d 757d adbd 43e3 ba3d 7a82 c93c
00000180: 5768 a83d b998 87bc 9576 b23d f24b e2bd
00000190: 5d21 dbbd a3e7 63bd 15e4 27bd 34f9 053e
000001a0: 055f 33be 108d 193e 8b5c f73a 5bdb 7f3d
000001b0: 800e 93bd a9a8 2abd fa5b 803d 243f 863d
000001c0: 5c34 e3bb 327e 533d 19f1 67bb 540c 413e
000001d0: 4fb5 40bd 9381 443d eb72 833a 430e 99bd
000001e0: 4b2f debd 5081 1abe a603 6dbd d754 b5bd
000001f0: fe6e 74bd 2499 a03c 80c3 15be 5106 a83c
00000200: 8c8b 343e 90ac 953c 98db 97be b214 fbbd
00000210: 078a 7abd 36a5 c03c 3545 80bd 334a ab3c
00000220: 92e9 c7bd 531b a13c 2270 58be 4baf e5bc
00000230: e27f 54bc 5c2c e03d a6bf d63c 06fc bf3d
00000240: 93b0 12be fa48 ffbd 5c24 7b3c 4ca8 0d3e
00000250: ab2d ef3c a021 89bd 75b5 09be 82bd 953b
00000260: 6b3c 103e 82b3 963d eaf3 023e b961 183d
00000270: 3451 b63d 8948 0e3e 4dba bbbd 6ec2 c73d
00000280: 3393 bb3d bbc7 f43d be92 f33c bd69 f83d
00000290: 7f34 c13d b777 1f3e 056a 413e 2c45 c3bd
000002a0: 7533 83bd 4c23 5ebe 8420 f13d 023a 723d
000002b0: 915e 27bc e747 5abc 4420 88bd d622 18be
000002c0: fe66 d9bc 9e2b 8bbd 8c79 913d 0680 9a3d
000002d0: c9e2 163e dcb5 083e d219 a7bc 762a 47bd
000002e0: 7178 443c 792c 6b3c 1781 043e 36b3 09bd
000002f0: 4091 e73c 4079 59be af76 9dbd 5079 1e3e
00000300: ea61 ecbd c8cc b6bd 7ec6 bd3d bf80 24bd
00000310: 770c 8dbc b4bb 05be 40b1 16be 2aa7 c13c
00000320: 5aac e7bc 924d 0fbe a727 af3d ce0a 13bd
00000330: 2f65 96bd dfbc 77bd f6d2 50be f3d3 093c
00000340: 3b1e 983d 6d63 b83d 5432 4bbd 55a1 b0bc
00000350: d7f8 3a3b 8cac 03be 9172 293d da08 02bc
00000360: 25ac 88bd c7c7 9bba 4b46 463d 0c89 36bd
00000370: 3998 8dbd 58c3 cebd 1ffb 7cbb 0402 05bd
00000380: 3d3f 813d 596f 853e 203e 2cbe 1bdd 24bd
00000390: 5daa 993d 8179 f1bd ee6a d43b 099f b4bd
000003a0: 960c 013e aee5 49be b8dd cfbd e484 133c
000003b0: 311b 94bd 61fd 3dbe a5a6 c03d bb7c 0e3e
000003c0: cbaf c3bd d092 71be 25ba f8bc cfbe 0e3d
000003d0: 09fe 473c b4f1 1c3e bee7 13be cf5b 3a3c
000003e0: 990e bd3d 1d57 b13d 973d c73d 9e24 843d
000003f0: 4664 d93d c3a0 64bc 59e0 e2bc a7f8 04bd
0.030684743 0.10746164 0.1440986 -0.1253183 0.15153977 0.018982248 -0.03866336 -0.074220516
-0.001986385 -0.11975821 -0.08524817 -0.07205119 -0.13563707 -0.08615263 0.0483027 -0.0315315
0.0034771527 0.055254642 0.03834426 -0.010368929 -0.06025999 0.15868907 -0.030618556 0.049906604
0.019772071 -0.011244539 0.17450684 0.0809922 0.06578307 -0.033377595 -0.04432904 -0.16253862
-0.04662086 -0.06936731 0.09388053 -0.08012307 0.15967397 -0.13532074 0.026042305 -0.021836244
-0.0014940565 0.05874692 -0.18514316 0.10286091 -0.10580139 0.19289587 -0.13236235 0.13025163
0.15840878 0.0948908 0.19313623 0.11356916 -0.072523326 -0.036902666 0.022078015 -0.09439583
0.18204752 -0.037811168 -0.13570435 -0.28488174 0.052702226 0.052614883 0.040775772 -0.075157985
-0.09838622 0.15089783 0.036423847 -0.0031254059 -0.2097113 0.054053947 -0.0013210545 0.034553967
0.03378768 -0.07433761 0.06901352 -0.0026313136 0.058018446 -0.21645586 0.036808897 0.049047526
-0.12573688 -0.046914198 -0.11484238 0.051514518 -0.18103622 0.09093675 -0.090666875 -0.03933905
0.049712963 0.0660279 -0.16699982 0.092108466 0.07894338 -0.08471195 0.09125378 0.024598349
0.08223026 -0.016552316 0.08714024 -0.11049642 -0.10699723 -0.055640828 -0.040989 0.13083345
-0.17516716 0.14995217 0.0018872184 0.062465053 -0.071805 -0.041664753 0.06267543 0.06555012
-0.006933732 0.05163402 -0.0035391508 0.18852359 -0.04704791 0.047975134 0.0010028755 -0.07473423
-0.10848864 -0.15088391 -0.057864808 -0.088540725 -0.059676163 0.019604273 -0.14625359 0.020510824
0.17631358 0.01827076 -0.29659724 -0.12259807 -0.06116679 0.023516279 -0.062632 0.020909404
-0.09761347 0.01966635 -0.21136525 -0.028037688 -0.012969943 0.10945961 0.026214432 0.093742415
-0.1432517 -0.12465091 0.015328493 0.13833731 0.02919658 -0.066958666 -0.13448127 0.00456971
0.14085548 0.07358457 0.12788358 0.03720257 0.08902207 0.13894857 -0.091663934 0.097538814
0.091589354 0.11952158 0.029733058 0.12129543 0.09433841 0.15573011 0.188881 -0.09534678
-0.06406299 -0.21693152 0.1177378 0.05913735 -0.0102154175 -0.013322807 -0.06646779 -0.14857039
-0.026538368 -0.06795429 0.07103261 0.0754395 0.14734949 0.13350624 -0.020398054 -0.04862448
0.011991606 0.014353865 0.12939869 -0.033618174 0.028267503 -0.2123766 -0.07688653 0.15475965
-0.11542113 -0.08925778 0.09266375 -0.040161844 -0.017217858 -0.13059884 -0.14716053 0.02363928
-0.028280426 -0.13994434 0.08552485 -0.035898976 -0.07343518 -0.060482856 -0.20392975 0.008412349
0.07427641 0.09003339 -0.049608544 -0.021561304 0.0028529668 -0.1285879 0.041369025 -0.007936681
-0.06673459 -0.00118851 0.04840688 -0.04456429 -0.069138 -0.100958526 -0.0038601828 -0.032472625
0.0631089 0.26061514 -0.16820574 -0.040249925 0.07503197 -0.11790753 0.0064824736 -0.08819396
0.12602457 -0.19716522 -0.10149711 0.009003852 -0.07231749 -0.18553688 0.09406785 0.13914768
-0.09555014 -0.23591161 -0.030362198 0.034849938 0.012206563 0.15326577 -0.14443871 0.011374428
0.092313 0.08659194 0.09728544 0.06452297 0.10614829 -0.013954344 -0.027694868 -0.032463696
