ML-Agent_EconomicModel/results/RollerBall/RollerBall/RollerBall-19149.onnx (onnx, 75401 bytes, 8 tensors)

action_model._continuous_distribution.log_sigma f4 [1, 2]
000000 e8 06 36 bd 99 48 11 bd
       -0.04444018 -0.035469625

action_model._continuous_distribution.mu.bias f4 [2]
000000 28 75 10 3c b7 13 d8 bb
       0.008816995 -0.006594147

action_model._continuous_distribution.mu.weight f4 [2, 128]
000000 e4 0e 17 bd d8 92 c4 3d 54 60 c2 bc 75 8a 5b 3d
       -0.036879435 0.09598321 -0.023727573 0.05359884
000010 e4 5b 60 bd bd 1e 83 3c c5 e4 4f 3d 7d a9 23 3d
       -0.054775134 0.016005868 0.05075528 0.03995656
000020 24 41 08 bd 10 90 f8 3b f3 19 18 ba 3e d9 86 3c
       -0.033265248 0.007585533 -0.00058022066 0.016461011
000030 0b 80 e1 3c 87 47 c0 bc 2b 39 31 3d 65 3a 11 bd
       0.027526876 -0.023471607 0.04326741 -0.03545608
000040 b3 1f 2d 3c 08 06 78 3d df ea 30 bd 91 95 9a 3d
       0.01056664 0.060552627 -0.04319274 0.07548059
000050 7a 13 0d bd 51 14 a4 bb f3 4b 8c 3c dc 0b e5 bc
       -0.034442402 -0.0050073047 0.01712606 -0.027959757
000060 28 74 be 3c 25 07 41 bd b5 6c 08 3d 5f 3e 12 bd
       0.023248747 -0.047125954 0.033306796 -0.035704013
000070 19 55 d0 b9 02 98 9d bc 5d 08 b2 bc 1e af 63 bd
       -0.00039736254 -0.019237522 -0.021732504 -0.055586927
000080 05 9f c3 3d db 8c 4e ba 08 05 6e 3b 05 47 23 bd
       0.09551815 -0.00078792655 0.0036318917 -0.03986265
000090 8c 20 57 bd 57 69 38 3d e7 72 40 bd b1 1a 8a 3d
       -0.052521273 0.045022335 -0.04698458 0.06743372
0000a0 ea 2d 39 3d cd 62 aa 3c 99 ae 90 3d d3 b7 86 3d
       0.045209803 0.020799065 0.07064552 0.065780304
0000b0 68 d7 30 bc 60 90 95 bc 82 bb 24 3d b4 e3 30 3d
       -0.010793544 -0.01825732 0.040217884 0.043185905
0000c0 61 1b 88 3d a3 c3 ca 3c 25 c9 1b bd b9 31 fa 3c
       0.06645847 0.02475149 -0.038033623 0.030541288
0000d0 0f f9 12 3d 19 d5 01 3d b5 b4 ad bd 2c 73 bd bc
       0.035882052 0.031697366 -0.08481733 -0.023126207
0000e0 83 32 bd 3d 60 74 30 bc 8c 9b 8a bc 72 0d 36 bb
       0.0923815 -0.010769933 -0.016919874 -0.002777901
0000f0 99 ed 48 3d 4a d6 2b bd 62 19 b3 3c 86 38 2b bd
       0.049054716 -0.04195241 0.02186269 -0.04180195
000100 d3 6c 4f 3d 45 ef 40 bd 91 36 33 bc 25 9c 9b 3c
       0.050640892 -0.047103185 -0.010938303 0.018995354
000110 1a b2 b9 38 33 7c 1a bd 83 28 c0 3c b3 c1 aa bc
       8.8546614e-05 -0.0377161 0.023456817 -0.020844316
000120 f4 99 2b bd a3 7a c6 3b e3 9e 0a 3d 64 52 c7 bc
       -0.041894868 0.0060571 0.033842932 -0.02433128
000130 ff 14 64 bd ea 2c 9c 3c 7b ce ed 39 81 24 1f bd
       -0.055684086 0.019064385 0.00045358003 -0.038853172
000140 2b 1d 05 bd bf 5e 51 bd 8b 4a 9e 3c 68 ba f8 3c
       -0.03249852 -0.051115748 0.019322654 0.030362323
000150 02 9b 20 bd a3 a9 75 3c be e1 a9 bc b1 47 18 bd
       -0.039210327 0.014994058 -0.020737525 -0.037177745
000160 64 fe 03 bd 4f 6e 19 3d 59 d7 58 bd ca da c5 3c
       -0.032225028 0.037458714 -0.052939747 0.024152178
000170 31 77 d4 3c 59 d5 0a bd 33 aa bf bc 8b ff 10 3d
       0.025935741 -0.03389487 -0.023396587 0.035399955
000180 2c 18 23 3d 9d 43 bf 3c d6 c0 90 bd f7 f8 2c bd
       0.039817974 0.02334767 -0.070680305 -0.04222962
000190 35 c2 1d 3c 80 37 92 3b 09 fd d0 bb 0a aa 70 3d
       0.009628822 0.0044621825 -0.0063778204 0.058755912
0001a0 b1 3b 04 3d 2f bb 16 3d 9f b8 12 3d 2e 28 12 bd
       0.03228349 0.036799606 0.0358206 -0.03568285
0001b0 1e d3 86 bd 5d be 11 3c 62 f4 14 bd 0d df 0c 3d
       -0.06583236 0.008895484 -0.036365874 0.034392405
0001c0 18 33 39 3d 0a e2 a4 3c a7 03 ff b9 b7 25 1c bd
       0.045214742 0.020127315 -0.0004864011 -0.038121905
0001d0 30 b6 9b bc ce 94 bf ba 5f fd 90 3d 48 45 21 3d
       -0.019007772 -0.0014616491 0.07079577 0.039372712
0001e0 49 b2 0d bc 0b c8 2a bd 34 5d 7f bb 36 09 95 3d
       -0.0086484635 -0.041694682 -0.0038965466 0.072771475
0001f0 37 3e 2f 3d ce 30 04 3d 18 f7 23 bc 0f cb 15 3d
       0.042783942 0.032273106 -0.010007642 0.036570605
000200 89 ed a3 3c 5c 99 25 3c 96 3e d7 3c 12 ec 9a bb
       0.020010727 0.0101073645 0.02627496 -0.004727849
000210 97 23 62 bd 28 21 1c 3b c2 12 78 bc bf c8 a2 bc
       -0.055209722 0.0023823474 -0.015141191 -0.019871114
000220 96 6f 7d bd e4 2e 2e bd 8d 0b 66 3d 43 f2 f1 bc
       -0.061873995 -0.042525187 0.05616336 -0.029534465
000230 d8 23 55 3d 29 e6 16 3d d2 c0 c6 3b 26 fb 9a 3c
       0.052036136 0.03684059 0.0060654664 0.018918585
000240 7b bb b3 bb d2 df 84 ba 77 2d 61 bd e6 53 54 3c
       -0.005484996 -0.0010137504 -0.054975 0.012959456
000250 b1 ee 0f bd 94 d7 fa 3c d7 cc f8 bc 2a 24 9b 3c
       -0.035139743 0.030620374 -0.030371113 0.018938143
000260 d9 6c b6 3c aa 81 37 bd 1f c3 33 3c 1d 8b 1b bb
       0.0222687 -0.04480139 0.010971813 -0.002373404
000270 9f f4 57 bd 97 cc 35 3d ec 53 48 bd d8 aa 0f 3d
       -0.052723523 0.044384565 -0.04890816 0.03507504
000280 4a 19 0b 3d a0 82 c1 3c 95 81 6d bc 08 25 4e bb
       0.033959664 0.023621857 -0.014496227 -0.0031455178
000290 27 af 4b bc dc 52 77 3c 4b e7 8a bd 1a e3 3e 3d
       -0.012431896 0.015095439 -0.06782397 0.0466033
0002a0 c0 46 4c 3d a2 25 a3 3b 23 08 12 3c e9 21 c6 3c
       0.04987216 0.0049788514 0.008913073 0.024186091
0002b0 c8 78 db bc be 93 63 3c b3 05 a7 3b 2a e1 24 3d
       -0.026790991 0.013890205 0.005097115 0.040253796
0002c0 6a f3 a9 3c 83 62 15 bd 20 21 57 3d a5 3b 92 3a
       0.020745952 -0.0364709 0.052521825 0.0011156691
0002d0 0e 67 6d 3d e1 fd f0 3c 44 46 d2 bd f0 6e 42 3d
       0.05795961 0.029417934 -0.10267308 0.04746908
0002e0 10 ac 01 bd c2 09 0a 3d 16 1c e7 3c bf 6f 12 3c
       -0.031658232 0.033700712 0.028211635 0.008937775
0002f0 b2 c7 2e bc 4e c0 29 bd aa dd 79 3c 1a e6 40 3b
       -0.010667728 -0.04144316 0.015250603 0.0029434026
000300 bd 53 8a 3c 38 83 bb 3c ce e1 d0 3c 0a e5 52 bc
       0.016885633 0.022889718 0.025498297 -0.01287199
000310 03 39 ee 3c 49 08 50 bd f4 59 76 3d 74 74 97 bd
       0.02907992 -0.05078915 0.06014438 -0.073952585
000320 6e c9 fa 3d 4e 7d f4 3c d8 15 67 3d 2b 15 ab 3d
       0.12245451 0.029844906 0.056417316 0.08353647
000330 4c 77 9c 3b 15 62 1d 3c e5 bb 45 bc 72 65 d1 3c
       0.0047749635 0.009605904 -0.012068723 0.025561068
000340 fd 0b 16 bd 0e 00 4e bd e6 8e 22 3d d1 a8 05 bd
       -0.036632527 -0.05029302 0.03968706 -0.0326317
000350 c1 07 b4 bb bc d2 04 3c 33 1b a9 3b df d1 1e 3d
       -0.0054940884 0.008106884 0.005160713 0.038774367
000360 fc e0 1a 3d 42 b4 60 bb c0 de f7 3b 0d d8 ad bb
       0.037812218 -0.003428713 0.0075643957 -0.0053052963
000370 e2 47 ba 3c 14 a8 69 3c 37 0d 03 3d 25 36 24 bd
       0.022739355 0.014261264 0.031995025 -0.0400907
000380 51 35 01 bd e2 1a c4 bc 5b 16 32 bd 40 65 e4 3c
       -0.031544987 -0.0239386 -0.04347835 0.027880311
000390 72 35 e1 bc 00 ed 4c bd 4d e1 b7 3c a8 d4 1b bc
       -0.027491305 -0.05003071 0.022446299 -0.00951115
0003a0 83 ca 18 3a 54 44 9b 3d b1 f6 36 bc 1d bd e1 3b
       0.00058285164 0.07581392 -0.011167214 0.006888999
0003b0 5f fc 04 3d 15 f6 6d 3d a8 96 9a bc e4 0b 35 bd
       0.032467242 0.05809601 -0.018870667 -0.044200793
0003c0 10 31 ee bb e7 1d 9a 3b 7d 5c 2e bd be c1 3b 3d
       -0.0072690323 0.0047032717 -0.042568672 0.045839064
0003d0 48 b8 e9 3c 5a 94 99 bc 7d 75 3f 3c 52 37 0f 3d
       0.028530255 -0.018747497 0.011685726 0.034964867
0003e0 ba 0a ca 3c 8b 5f f0 bb 1e 01 9e 3c 14 05 b8 3c
       0.024663318 -0.0073356084 0.019287642 0.022463359
0003f0 28 85 18 3c 4b ed 2b bd ac 08 b8 3d 91 ff 10 bc
       0.009309091 -0.041974347 0.08986029 -0.008849994

action_model._discrete_distribution.branches.0.weight f4 [1, 128]
000000 80 bc 09 b9 86 bb c6 3b d0 ee 7b 3a b3 b0 97 3a
       -0.0001313556 0.006064835 0.0009610476 0.0011573046
000010 28 c1 d6 bb 97 5d 49 bc 38 dc 7a bc 88 88 13 3c
       -0.0065537877 -0.01229038 -0.015311293 0.00900472
000020 dd 21 82 bc 92 e6 0c 3c ca aa 7a 3b a4 f1 2e 37
       -0.015885288 0.008599894 0.003824877 1.04274695e-05
000030 6c b1 0f 3c fd d4 54 bc 22 b1 97 bb 92 ba 11 bb
       0.008770328 -0.0129902335 -0.00462927 -0.0022236449
000040 3d cf 90 3b 82 44 51 3a 60 09 5a 3b 5f cd a8 bc
       0.004419236 0.0007982926 0.0033269748 -0.020605741
000050 b6 64 b5 3b 03 d1 2e 3b b1 c1 22 3c b6 a1 ca 3a
       0.0055356873 0.0026674874 0.009933875 0.001545957
000060 6f 81 85 3c 7b 5b 0a bc 37 fc 28 bc 3b 32 33 3c
       0.01629707 -0.008444662 -0.010314039 0.010937269
000070 f6 12 a0 bc 1b df 69 bc 3f 73 1b 3c bc 9e 40 bc
       -0.019540291 -0.014274384 0.009487926 -0.011756595
000080 9f b2 89 bb cf e2 27 3c 27 86 92 bc df 33 48 bb
       -0.0042022015 0.0102469465 -0.017886234 -0.0030548496
000090 83 89 71 3b 63 33 d9 bb 67 cb e4 3b a1 70 9b 3c
       0.0036855645 -0.00662844 0.0069822553 0.018974604
0000a0 83 52 17 bb 22 2b 9d bc 8c ca 20 3c 53 9b 39 3c
       -0.0023089952 -0.019185606 0.009813916 0.011328536
0000b0 33 89 8a 3b f7 b6 f5 bb bb f6 fb bb e9 ae 02 bb
       0.004227781 -0.0074986177 -0.0076893247 -0.001994068
0000c0 7f b7 77 3c f6 a7 c4 3b 4b a3 70 bc 55 ad 4f bc
       0.0151194325 0.006001468 -0.01468737 -0.012675603
0000d0 2a a3 a1 bb d8 4f 8e 3b 02 55 cc 3c fd 18 5d bc
       -0.0049327808 0.004343014 0.024942879 -0.013494727
0000e0 ed 88 df 3b c2 2e ce bb 14 f9 31 3c e2 6c 0b bb
       0.0068217427 -0.006292195 0.0108626075 -0.0021274616
0000f0 6d fa 87 ba d9 db 9a ba 40 47 76 bb e9 3c 3f bc
       -0.0010374315 -0.0011814787 -0.003757909 -0.011672237
000100 e6 d7 a1 3c 6b f9 82 3b a3 c0 22 3c 18 1a 61 3c
       0.019756269 0.003997018 0.0099336235 0.013739131
000110 4f 23 a2 3b f3 3a 4a 3b 2e 4f 41 3c af 53 f1 ba
       0.004948057 0.003085789 0.011798663 -0.001841178
000120 e8 da a1 3b 26 62 82 3b 8f cd e0 b8 3a 47 c8 bb
       0.0049394257 0.0039789854 -0.000107194406 -0.0061120065
000130 4b 4e 92 ba 4f 2d 80 3c 1f 32 b0 3b 10 01 b3 3a
       -0.0011162249 0.015646605 0.0053770686 0.0013656933
000140 f7 35 1d bc a0 3a 41 bc 4f cd 4a bb 60 76 2e bc
       -0.009595386 -0.011793762 -0.0030945127 -0.01064834
000150 42 ab 36 3c e7 f3 11 bc ef c8 ff 3b 31 49 9e 3b
       0.0111492295 -0.0089082485 0.0078059356 0.0048305024
000160 70 b9 ed 3b 12 a9 f2 3a 55 1d 36 3b e0 bc 70 bb
       0.007254772 0.0018513522 0.002778848 -0.0036733672
000170 88 85 da 3b eb 54 86 bb 0d 36 ce 3b ff f1 13 ba
       0.00666875 -0.0040994785 0.0062930644 -0.0005643665
000180 2d 0c 84 3a ad 65 ec bb 27 b7 99 3c 20 bb c6 39
       0.001007443 -0.007214269 0.018764092 0.00037904922
000190 b0 2c f3 3b ab bc 39 bc 61 06 34 3a 1f 13 23 bc
       0.0074210986 -0.011336486 0.00068674056 -0.009953289
0001a0 e4 fd 25 bc 2a 0b aa 3b 27 7b 63 ba 5f 49 20 bc
       -0.010131333 0.005189319 -0.0008677714 -0.009783118
0001b0 50 3b 07 ba 65 16 d8 3b c5 ae 8d 3c ec e1 b8 3a
       -0.00051586796 0.0065944665 0.01729525 0.0014105416
0001c0 b3 c3 55 3b c4 b6 2d ba 77 48 43 3c 42 e5 97 bb
       0.0032617867 -0.00066266605 0.011919132 -0.004635484
0001d0 14 db 0a 3b fa 99 de bb df 14 8b 3a 4f f9 b7 3b
       0.002118771 -0.006793258 0.0010611078 0.0056144367
0001e0 89 f0 35 bc 40 9c 5a bc 4c 5d bd bb 6b b2 d4 bb
       -0.011104711 -0.013342917 -0.005778944 -0.0064909956
0001f0 72 f0 95 3a bb 2c 09 bc 62 a3 16 bb ca 95 b9 3c
       0.0011439456 -0.008372481 -0.0022985567 0.022654433

network_body._body_endoder.seq_layers.0.bias f4 [128]
000000 3b 50 26 3d 3d 08 5a bd fc 89 15 3c 51 c7 9a bc
       0.040603857 -0.053230513 0.009127136 -0.01889387
000010 6d 18 b4 bc ef 85 98 bc 3a 34 ba 3b d4 82 8e 36
       -0.021984303 -0.018618552 0.0056824954 4.24716e-06
000020 12 33 40 bc 15 ef a8 3c a6 aa 8a 3d 41 15 5b ba
       -0.011730926 0.020621816 0.0677083 -0.0008357354
000030 1a 65 1d 3a 65 51 43 3b 85 54 b1 ba a8 47 0b 3d
       0.000600414 0.0029803154 -0.0013529217 0.034003884
000040 d9 48 5f 3d e0 56 ac bd de cf 4e 3a 4f 81 d2 bc
       0.054512832 -0.084150076 0.0007889251 -0.025696425
000050 a7 37 2b bc 9d eb 54 bc 1d 1b 15 3d 8d c5 11 bc
       -0.01045028 -0.012995628 0.03640281 -0.008897197
000060 3e 64 aa 3c d4 12 66 bc c1 e9 0b 3d 30 b0 61 bd
       0.020799752 -0.014042575 0.034158472 -0.055099666
000070 1a 61 b4 3b d5 58 02 bd 45 9b bb 3c aa 5d fa 3c
       0.0055047395 -0.031822998 0.022901187 0.03056224
000080 49 2d fb 3c 1e d5 1c 3c 95 b6 37 bd 5c b8 98 bd
       0.030661242 0.0095722955 -0.04485186 -0.07457039
000090 ad f0 8e bc 43 ee 69 3c 2b ac 25 bc c5 b6 0a 3d
       -0.017448748 0.014277997 -0.010111849 0.03386571
0000a0 36 8e a7 bd 89 d4 13 3d ce 29 d5 bc fb 35 50 3b
       -0.081814215 0.03609136 -0.02602091 0.0031770456
0000b0 7f ee 9d 3c 8e aa 2d 3b 0e b7 d9 3b 69 1a 08 bc
       0.019278763 0.0026499364 0.0066441363 -0.008307078
0000c0 d9 3d e6 bc a3 f6 0a bc 36 ee 15 bd f1 56 36 bc
       -0.028105663 -0.008481654 -0.03660413 -0.011129127
0000d0 a9 05 70 3c 05 8d 27 3d ed 8c fc bc 04 94 8d 3d
       0.014649787 0.04090597 -0.030828917 0.06912997
0000e0 69 b6 4f 3c 16 62 e0 3c b8 ed 92 bc 42 a5 fe bc
       0.012677767 0.027390521 -0.017935619 -0.03108466
0000f0 1f 89 1b 3d 92 9c 3c 3d 73 02 7d bd 94 94 3f bc
       0.037972566 0.046047755 -0.061769914 -0.011693139
000100 8f 1e bd 3c 1d ba ec bc b8 d8 9f 3c 37 2e 78 3b
       0.02308586 -0.02889734 0.01951252 0.0037869343
000110 dd 74 1d bb a7 46 83 3d 61 93 61 3c 98 d4 4d bd
       -0.0024025955 0.0640996 0.013768048 -0.050251573
000120 76 d4 a9 bc 7c 74 b8 3c 9f a5 87 bc cd 9f 5c 3c
       -0.020731192 0.022516482 -0.016558466 0.013465834
000130 2c cc f7 bc 95 0d 0c 3d 0d 63 45 3c ed 28 59 bd
       -0.030248724 0.03419264 0.012047541 -0.053017545
000140 70 0c 27 bd f5 80 5b bd 77 26 81 bc 05 70 35 3c
       -0.040783346 -0.05358978 -0.015765412 0.011074071
000150 97 7c 97 3c b7 2a a0 bd 7e 0b 25 3d 9c cc a3 bc
       0.018492026 -0.07820647 0.040294163 -0.019995026
000160 19 2e 93 3a c0 c0 78 bc 85 66 4f 3d e1 fc 2f bd
       0.0011228948 -0.015182674 0.05063488 -0.042965773
000170 65 db 8e 3b 76 13 ad 3c 3c 34 19 3c 6e 5b 0d bd
       0.00435965 0.021127444 0.009350833 -0.034511022
000180 c8 6b de bc bf 09 0c 3d 48 e0 88 ba f5 e4 74 bc
       -0.027151003 0.034188982 -0.0010442818 -0.014947166
000190 50 7e 32 3d 5f 32 a6 bb 00 c6 76 bc 82 ac 50 bb
       0.043577492 -0.0050719227 -0.015061855 -0.0031841104
0001a0 78 d1 af bb 8a ee 51 bd 87 e9 a5 bc 8e e4 66 3d
       -0.005365547 -0.05125288 -0.020252956 0.05637031
0001b0 61 4a 23 3c 73 73 7b 3d 80 21 29 bd 6a e8 b0 3c
       0.009966464 0.061389398 -0.041291714 0.021595199
0001c0 59 a2 1d bd 24 79 8a bc 7e 56 b5 bb b0 25 7d bb
       -0.038484905 -0.016903467 -0.0055339923 -0.00386272
0001d0 54 83 1a 3c 74 a1 da 3b d1 57 45 3a 37 86 02 bc
       0.009430725 0.0066720787 0.0007528039 -0.00796657
0001e0 10 4d 3d 3d 6f 56 e9 3c 72 a8 7f 3c 3a b2 bc ba
       0.04621607 0.028483598 0.015604125 -0.0014396377
0001f0 22 14 9f bc 0d e7 52 bd 40 98 03 3c c6 1f bd bc
       -0.01941878 -0.05148988 0.008031905 -0.02308644

network_body._body_endoder.seq_layers.0.weight f4 [128, 8]
000000 c8 74 1c 3f bc 25 70 3d 4a 21 c7 be 41 01 ec 3d
       0.61115694 0.058629736 -0.38892585 0.11523677
000010 eb 80 d9 be 66 04 ee be 54 bb d5 be 63 de 3c 3f
       -0.4248117 -0.4648773 -0.41744483 0.73776835
000020 4b c2 8a 3e 83 fc 3c be 9d 14 f1 bd fd 36 39 3f
       0.2710136 -0.184557 -0.1177151 0.7234953
000030 b8 cf 2b bf 10 69 fd 3e b8 23 cc bc df 13 db be
       -0.6711383 0.4949422 -0.024919376 -0.42788598
000040 8a e0 ea be cf 2d 24 bf 5b 08 c3 3d e7 fa cb 3e
       -0.45874435 -0.641324 0.09523078 0.3983986
000050 53 75 dd 3e 8c 3a a7 bd d0 8e c7 3c e9 56 b2 bd
       0.43253574 -0.08165464 0.02436009 -0.08707983
000060 5b 39 d9 3b 1a 3a 44 be f1 e6 bb be ed 74 85 3e
       0.0066291518 -0.19162789 -0.36699632 0.2606577
000070 be 6b fd bd 5f c4 30 bf 13 84 0a 3f 31 fa 10 3e
       -0.12374066 -0.6904964 0.5410778 0.1415794
000080 7d 4c f2 be 39 fc c5 bd c2 37 1c 3e 85 0a 75 3e
       -0.4732398 -0.09667248 0.15255645 0.23929794
000090 30 e9 15 bf a1 28 74 bc 2b fa c5 be b6 95 aa 3e
       -0.5855894 -0.014902265 -0.38667426 0.33317345
0000a0 4f 28 d1 be a4 7b c9 3e dc 01 41 3d f8 a5 b8 bd
       -0.40851066 0.39352143 0.047120914 -0.09016031
0000b0 c5 43 b5 3d df ba 25 3e 99 5e a2 be 4c a8 e4 bd
       0.08850817 0.16184567 -0.31712797 -0.111649126
0000c0 56 0f ba be 8c ac 3b 3e 67 f7 6e 3e 27 3b 80 be
       -0.36339825 0.1832754 0.23336564 -0.2504513
0000d0 69 aa 4f 3e f5 d2 e4 be 83 1c c2 bc af 5d ec be
       0.2027985 -0.44692197 -0.023695236 -0.46165225
0000e0 71 24 1c 3e 1f 3b 2c 3e 65 6f 7b be f5 7d 3a 3e
       0.15248276 0.16819428 -0.24554212 0.18212111
0000f0 60 a9 8e be d1 76 4e be 77 f8 80 3e ab 6f 2e be
       -0.27863598 -0.20162512 0.25189564 -0.17034785
000100 a3 9d 06 3e ac 12 31 3e 43 b0 af 3e 70 9e 82 3e
       0.13146071 0.17292279 0.34314165 0.25511503
000110 03 a6 2e 3e 62 20 04 bf bb 8b 43 be a9 f5 c9 3e
       0.17055516 -0.5161191 -0.19096272 0.39445236
000120 ec ba cf 3d f2 ec 9a 3e 12 97 95 be 82 0d 21 bf
       0.101430744 0.302589 -0.2921682 -0.62911236
000130 87 52 19 3f ad 05 96 3e 7f 5a ae 3e 21 f5 c7 3d
       0.5989155 0.29301205 0.34053418 0.097635515
000140 a2 f3 1f be ee 08 14 3e a2 2f eb be 26 93 80 3e
       -0.15620282 0.14456531 -0.45934778 0.25112265
000150 fc 27 3c 3f 53 65 22 3f e4 de 40 3e 88 37 95 be
       0.7349851 0.6343586 0.18835026 -0.2914393
000160 87 57 8a bd 0c b3 4d 3e 02 80 84 be b9 1d 8f 3e
       -0.06754976 0.20087832 -0.25878912 0.27952364
000170 5e c9 77 bf ba 8c fc 3d 5c 74 14 bf 25 b1 f8 bd
       -0.96791637 0.12331529 -0.5799005 -0.12143163
000180 e3 85 2c 3d 9a f2 61 3e 48 8f a1 3e 9d ac e6 bd
       0.04211987 0.22065201 0.31554627 -0.11263392
000190 2c dd ac be ea d5 ab bb c3 c7 59 be 7a e3 d2 be
       -0.3376249 -0.0052440064 -0.2126761 -0.41189176
0001a0 36 93 53 bc e6 b9 53 3e 34 e0 b5 3e a8 88 f4 3d
       -0.012913516 0.20676383 0.35522616 0.119401276
0001b0 a8 c4 e5 be a2 93 3c 3e b5 98 cb be 78 4b 58 be
       -0.448766 0.18415692 -0.39764944 -0.21122539
0001c0 14 92 6a bf 1c 4a c2 be f5 23 c0 3e 20 9c 23 be
       -0.9162915 -0.37947166 0.37527433 -0.15977526
0001d0 a3 9e 50 bc e8 f6 c7 3e ae c4 2a be 9f 28 cb be
       -0.012733134 0.39055562 -0.1667659 -0.3967943
0001e0 2c a4 83 3e 22 9a 88 3e 22 73 a6 bc 9b 88 0a bf
       0.2571119 0.26680094 -0.020318571 -0.54114693
0001f0 60 f0 8f 3e f5 1e 49 be ba 6c 9b be 81 1e 81 be
       0.2811308 -0.19640715 -0.3035639 -0.25218585
000200 79 7c d6 bd af dd 02 3e 0f 55 37 3f 40 8a 03 be
       -0.1047296 0.12779878 0.71614164 -0.12845707
000210 47 78 40 3e 89 f3 1c be ed bf 20 3f 6b 31 11 bf
       0.18795882 -0.15327276 0.62792856 -0.5671603
000220 c6 42 dc 3d 9d 59 63 3e d7 f2 96 3e 4f ad 22 3f
       0.107549235 0.22202154 0.29482147 0.635457
000230 02 8f 06 3f be cd cd bd d2 82 61 be d9 ec 8b 3e
       0.5256196 -0.10049008 -0.2202256 0.27329138
000240 68 28 17 3f 6e 9d c8 3e aa e9 8b be c9 a3 cb bd
       0.5904603 0.3918261 -0.2732671 -0.09943349
000250 69 be 11 be 81 3d 0e 3f c0 63 87 be d2 33 4f be
       -0.14232792 0.555626 -0.2644329 -0.20234612
000260 b4 24 72 3e a8 7e 33 be 5c 4a 42 be 02 70 7c be
       0.23646814 -0.17528784 -0.18973678 -0.24652103
000270 0b 65 83 3e 2e 87 c6 3d 2f de 32 bf 03 e9 77 be
       0.25663027 0.09693752 -0.69870275 -0.2420998
000280 09 6f f4 3d a1 43 9d 3c 5f e0 34 be 23 ed ef be
       0.11935241 0.019197287 -0.17663716 -0.46860608
000290 c5 78 e9 3d 89 21 b2 bc a0 54 24 3f 3d 66 80 bd
       0.11399988 -0.021744506 0.6419163 -0.062695004
0002a0 be f2 12 bf 72 46 e5 bd 2f 66 b1 3e 44 3d c7 bb
       -0.57401645 -0.11195077 0.34648272 -0.0060803015
0002b0 22 bf 82 be 32 0f ec 3e 11 c1 36 3e 9b f5 76 be
       -0.25536448 0.46105343 0.17847086 -0.24117129
0002c0 ee 40 a3 bd e0 f7 9f be 9a 80 1d 3d a6 80 74 bd
       -0.07971369 -0.312438 0.038452722 -0.059693
0002d0 fd 9a 4a bc ca 41 e8 bc d4 2a 51 3f a3 d0 b2 3e
       -0.012366054 -0.028351683 0.81705976 0.34924802
0002e0 41 19 84 3e 68 a0 3d bf 2a 0a 82 be fa fa 0c be
       0.25800517 -0.74072886 -0.2539838 -0.13767615
0002f0 29 87 1f be be bb de 3e 92 ee ec be 0f 95 29 3e
       -0.15578903 0.4350261 -0.46275765 0.16560768
000300 8c 7a be 3c e6 41 3c 3e c4 c4 8b 3d 96 89 3c bd
       0.023251794 0.18384513 0.068246394 -0.04602965
000310 c3 88 43 3e d7 98 50 bf 94 3e bf bd 34 b6 8b 3d
       0.19095139 -0.81483215 -0.09338108 0.06821862
000320 64 ad 48 be 0c ca 94 bd 89 56 4f 3e 4e 3e 88 3e
       -0.19597393 -0.072651 0.20247854 0.26610035
000330 86 1f 94 3e 58 48 f4 3d 71 80 0d be be e9 58 3e
       0.289303 0.11927861 -0.13818528 0.21182916
000340 e7 0d 1f 3f e7 d9 34 bd 5f ad a7 3f ba f2 9c bd
       0.6213059 -0.04415312 1.3099784 -0.07663484
000350 19 fd 05 3e f4 8e 74 3e 88 01 34 3f 78 2b ed be
       0.1308483 0.23882657 0.70314837 -0.46322227
000360 02 cd c9 3e 9e e8 a6 3e d3 26 9c 3e 79 60 25 3e
       0.3941422 0.32599348 0.3049837 0.16150083
000370 a7 3d 95 be 62 58 ec 3e 6b 33 da 3e d2 c0 10 3e
       -0.291486 0.4616118 0.42617354 0.14136055
000380 02 62 4c 3e 35 a4 69 be 55 81 24 bf d3 96 10 3e
       0.19959262 -0.22816546 -0.64259845 0.14120035
000390 bb 9c df 3d 23 4d 35 bd ef 34 8f bc 81 5f 8f 3d
       0.10918566 -0.044263016 -0.017481295 0.07000638
0003a0 96 d4 23 3e 66 a9 2a be 1e 1b b3 3e 21 d6 3f bf
       0.15999064 -0.16666183 0.34981626 -0.7493611
0003b0 6c 77 f7 bd df 1f 86 be 1a 8a aa be ac 58 44 3f
       -0.12083325 -0.2619619 -0.33308488 0.766978
0003c0 43 15 a7 3e 1b cd 17 3e 03 af 3f be cf 09 48 3e
       0.3263341 0.14824335 -0.18719105 0.19534992
0003d0 60 a2 ab 3c ef 96 d5 3e a9 16 68 be 43 da a6 3e
       0.02095145 0.41716716 -0.22664894 0.32588395
0003e0 64 31 00 3f 06 42 e0 bd 45 0d a0 3e 64 70 42 3e
       0.50075364 -0.10950093 0.31260124 0.18988186
0003f0 ac b8 96 be af e8 89 be a9 d6 4e bf 3c 30 04 bf
       -0.29437768 -0.26935336 -0.80796295 -0.516361

network_body._body_endoder.seq_layers.2.bias f4 [128]
000000 00 65 43 bc 6f 58 a4 3d a6 ed 00 bd b3 19 0f 3d
       -0.011925936 0.0802468 -0.03147664 0.034936618
000010 af 8e 78 3d 37 31 a0 bb 28 29 71 3c 82 32 99 3b
       0.06068295 -0.0048886794 0.014719285 0.0046752105
000020 3e cb 2e 3d 07 42 e9 3c 5b 99 5f bb 51 34 d2 3c
       0.042674296 0.028473867 -0.0034118507 0.025659712
000030 0a 61 08 3d 73 d3 37 bc 64 00 89 3b b9 f9 a6 bc
       0.03329567 -0.011219847 0.004180955 -0.020382749
000040 98 c7 f0 bc 6c 16 a0 3c 99 95 33 3d ab 6c b6 3c
       -0.029392049 0.019541942 0.04384384 0.022268614
000050 17 01 56 3c 20 57 5d bc 19 3b c8 3c 0d 63 4e bc
       0.013061783 -0.013509542 0.024442242 -0.012596858
000060 b0 2b 8b bc 10 c1 5b 3d ab f8 28 3c 80 8e 35 3b
       -0.016988605 0.053650916 0.010313193 0.0027703345
000070 a1 4a 44 3d 3b 45 37 3c 80 de 56 3d 05 f1 1b 3b
       0.047922734 0.011185939 0.052458286 0.0023794782
000080 6f 9a 9e 3c f5 2f 9f 3b 58 23 2e 3c cb 27 0e 3c
       0.019360749 0.004858012 0.010628544 0.00867648
000090 8f be 1f 3d 9d 2e b4 3c 81 5d 67 3d 49 cd 10 3d
       0.03900009 0.021994883 0.056485657 0.035352025
0000a0 ef eb 04 3d 5d a4 8e bc 9f a1 e1 3c 5f f7 71 3d
       0.032451566 -0.017412359 0.027542887 0.059073802
0000b0 23 f7 96 3a cc c8 9b bc 19 02 ce 3c c5 5e bd 3c
       0.0011517744 -0.019016646 0.025147485 0.023116479
0000c0 54 12 ed 3c 61 10 24 bc ac ab cf 3c 11 70 3c bb
       0.028939404 -0.010013671 0.025350414 -0.002875332
0000d0 7d f8 82 3c 21 6d 5f 3c c7 50 b3 3d 6e b6 90 3c
       0.01598763 0.013636858 0.087556414 0.017665114
0000e0 fe c4 24 3d 3a e1 bc bc 47 79 e8 bc 47 a0 f5 bc
       0.04022693 -0.023056615 -0.028378142 -0.029983653
0000f0 70 2d 99 3c 70 45 95 3c 28 34 de 3b f9 05 b6 3b
       0.018698424 0.018221587 0.00678112 0.005554911
000100 ff 25 b3 3c 5c 20 0e 3c db b4 cc bc a2 bb 42 bc
       0.021868704 0.008674707 -0.024988582 -0.011885555
000110 0c cc ee bc 7b 48 da 3c 7a 19 e1 3c 81 e1 12 3d
       -0.029150032 0.02664589 0.027477968 0.03585959
000120 8c ed 14 3d 11 93 31 3b 2b a0 31 3d a6 e0 f7 3c
       0.036359355 0.0027095715 0.04336564 0.030258488
000130 2b da c9 3c 36 50 e6 bc 65 0d 72 bc df 78 d6 3b
       0.024640163 -0.02811442 -0.014773701 0.0065451707
000140 6e bc 16 3d 8f 05 61 3d 85 cd 89 bc be c2 7c 3b
       0.036800794 0.05493694 -0.016821632 0.0038568224
000150 ca d4 fe 3b b2 01 3b bb 5f 7a bf bc fb 5d 91 3c
       0.0077768313 -0.0028534946 -0.02337378 0.017745009
000160 8d ad 7e bb 7c ed 5e 3c c6 7d 16 3d bb b7 78 bc
       -0.0038860769 0.013606425 0.03674104 -0.0151805235
000170 1c 44 9d bc 44 8f f4 bc 7c 00 15 3b e9 31 a2 3c
       -0.019197516 -0.02985347 0.0022735884 0.01979919
000180 46 cc 5b 3b 36 77 b8 3c a0 f0 1c 3d 8b aa 52 3c
       0.0033538505 0.022517782 0.038315415 0.012858043
000190 66 5e 6b bc 3c 86 01 3d db 72 94 bc 25 05 50 3c
       -0.014365768 0.031622157 -0.018121174 0.012696539
0001a0 87 c7 fb 39 5e 2c 5e 3d 10 54 a8 3b 34 62 10 3c
       0.0004802311 0.05424153 0.005136974 0.008812476
0001b0 72 9d 70 bb a5 ce 6d ba a5 9c a5 3c b2 0f c3 3c
       -0.0036714938 -0.0009071625 0.020216295 0.023811195
0001c0 ba cb f4 bb 8e 5d 07 bd a3 1f 66 3c ae f1 a3 3c
       -0.007470575 -0.033048205 0.014045629 0.020012703
0001d0 f7 fc 94 bc d0 29 cf b9 cb 5c 89 3d 95 9c 3f 3d
       -0.01818703 -0.0003951327 0.06707152 0.046780188
0001e0 44 56 84 bc fb fc b6 3b 3f 55 4d bc b7 9e ec 3c
       -0.016154416 0.005584357 -0.012532531 0.028884275
0001f0 ee db ce 3b 31 57 67 3b 9e fa 32 3d a8 e8 91 3c
       0.0063128388 0.0035299773 0.04369604 0.017811134

network_body._body_endoder.seq_layers.2.weight f4 [128, 128]
000000 a6 b9 59 bc 3c b5 9f 3d 6e d5 f0 3d d1 30 29 be
       -0.013288891 0.077982396 0.117594585 -0.16522528
000010 b5 ad 14 3e 2b 99 c7 3c 77 60 a6 bd 04 54 c3 bd
       0.14519389 0.024365028 -0.08123868 -0.09537509
000020 b8 94 f4 bc 2f d5 91 bd f9 b6 d1 bd 36 bb a8 bc
       -0.02985607 -0.0712074 -0.102399774 -0.020597082
000030 b0 7a 23 be 9f 87 b0 bd be 55 fd 3c 17 ec 2c bd
       -0.1596477 -0.08619618 0.030924674 -0.04221734
000040 bf f8 95 bc 5f d6 09 3d 2a 92 0e 3d 12 33 39 3c
       -0.018307088 0.033651706 0.03480736 0.01130368
000050 6d d4 ef bc c2 95 0d 3e db 3f e1 bc 44 3d 85 3d
       -0.029276097 0.1382666 -0.027496269 0.06505826
000060 c2 66 46 bd 1c 59 78 bc d7 66 35 3e 9e 15 a3 3d
       -0.04843784 -0.015157964 0.17715012 0.079631075
000070 dd 57 7f 3d 1a c0 e7 ba 58 fd 20 bd 40 e2 2e be
       0.062339652 -0.0017681152 -0.039304107 -0.17078495
000080 23 2f 6b bd 4e 7f 13 bd 31 f3 a3 3d 4d f1 98 bd
       -0.057418 -0.03601008 0.080053695 -0.074678995
000090 99 91 14 3e 65 6c cf bd a7 bd c7 3c 08 31 76 bd
       0.14508666 -0.101280965 0.024382425 -0.060105354
0000a0 f9 1e 8b bc f5 f6 d4 3c 00 26 41 be e5 ef 9c 3d
       -0.016982542 0.025996665 -0.18862152 0.07662944
0000b0 ff 19 ae bd 81 ed 3c 3e 30 5d 17 be e4 3d f3 3d
       -0.08501052 0.18449976 -0.14781642 0.11877039
0000c0 58 12 fa 3d 1f a6 cd 3d a0 bd 0b 3e 61 72 c0 3d
       0.1221053 0.10041451 0.13646555 0.09396816
0000d0 2b 7a 00 bd 97 d3 a0 bd 81 13 49 3d cf 87 0e be
       -0.03136651 -0.078528576 0.049090866 -0.13918994
0000e0 2d e7 19 3e 59 9e 2a bd fc 8d 09 be 56 6e 8b be
       0.15029593 -0.04165492 -0.13433069 -0.27232617
0000f0 6b b7 96 3d e0 f7 3d 3d de e5 fe 3c 0b e1 e8 bd
       0.07359203 0.04637897 0.031115469 -0.113710485
000100 ad 44 dd bd 3f 86 da 3d 8d 02 81 3b 7f 67 d5 bc
       -0.108041145 0.10670137 0.0039370717 -0.026050327
000110 ad ae 58 be 96 2f 5b 3d 3c 68 3d 3c 2e bd 61 3d
       -0.21160384 0.05351218 0.011560496 0.055112056
000120 c1 02 5c 3c 36 d0 91 bd e1 0c e8 3c 1e a8 63 b9
       0.013428391 -0.07119791 0.028326454 -0.00021711036
000130 8d 86 6c 3c 61 05 50 be 8d bb 15 3b 15 7a 40 3d
       0.014436376 -0.20314552 0.0022847385 0.046991426
000140 6c 01 30 be 3d ee 30 bd 0a 83 0a be 8d 3f e2 3c
       -0.17188042 -0.04319595 -0.1352655 0.027618194
000150 8c 9e 45 be 1d b3 d1 3d ba a9 f0 bd 8c 2c 71 bd
       -0.19298762 0.10239241 -0.11751123 -0.058880374
000160 01 94 fa 3c 3b bd 58 3d c2 b9 30 be d5 e9 84 3d
       0.030588152 0.05291484 -0.17258361 0.064899124
000170 ec c5 cf 3d 87 6a f8 bd 10 82 97 3d dc f0 22 bc
       0.101451725 -0.121296935 0.07397854 -0.009945121
000180 9a 07 fb 3d db 73 48 bd b8 68 b6 3d 0d 4f d8 bd
       0.12257309 -0.048938613 0.08906692 -0.10561953
000190 32 e4 e7 bd 58 57 86 bd 81 8b c0 bc 6f da 0b 3e
       -0.11322822 -0.06559628 -0.02350402 0.13657545
0001a0 8b 3f 10 be ec 48 dc 3d a6 9d ac 3b 45 7a 60 3d
       -0.1408674 0.10756096 0.0052678166 0.054804105
0001b0 fd c9 c4 bd 1a 3e 49 bd 12 64 9b 3d b1 b1 41 3d
       -0.09608839 -0.04913149 0.07587446 0.0472886
0001c0 7e b1 d4 bc 0e 74 c9 3c 01 ea 76 3a cc f3 14 3e
       -0.025963541 0.024591472 0.00094190246 0.14546126
0001d0 42 b3 60 bd 69 7a 74 3d ca 1b 03 bd ee 17 b6 bc
       -0.054858454 0.059687052 -0.032008924 -0.022228207
0001e0 1f 63 91 bd 97 5b 05 be ce 96 20 bd 41 30 78 bd
       -0.07098984 -0.1302322 -0.03920632 -0.060592894
0001f0 a2 1b 99 bd d9 21 19 ba c1 df 2e be 7a 49 c8 3c
       -0.07475974 -0.00058415305 -0.17077543 0.024449099
000200 bc ef 2e 3e 20 a1 1c 3d 5e db 8d be 72 4d 03 be
       0.17083639 0.0382396 -0.27706426 -0.12822512
000210 e5 ee 8f bd 5d 6b 87 3c 63 2a 14 bd 60 97 bf 3b
       -0.070279874 0.016530687 -0.036173236 0.0058469027
000220 74 c7 02 be e4 7e 05 3c 03 ae 65 be 48 eb cb bc
       -0.12771398 0.008147929 -0.22429661 -0.024892464
000230 bd ac 74 bc 62 92 44 3d c4 70 f9 3c 5d 66 b4 3d
       -0.014933762 0.047991164 0.030449279 0.08808587
000240 97 10 df bd 83 85 3c be 15 f0 96 3c a2 5f ff 3d
       -0.10891836 -0.18410306 0.018425027 0.124694124
000250 a1 2a df 3c 1e 12 af bd cd a9 0e be 41 2e c2 ba
       0.027242007 -0.085483775 -0.13931961 -0.001481481
000260 df 28 24 3e 66 ce 91 bb 5c c4 e5 3d c5 f2 14 3d
       0.16031216 -0.0044496534 0.11219093 0.036364336
000270 a6 50 90 3d f6 8b eb 3d c5 24 c8 bd 94 97 9a 3d
       0.070466325 0.11501305 -0.09772638 0.075484425
000280 55 74 b9 3d a7 06 c9 3d dd 17 7f bc 67 e8 c9 3d
       0.09055392 0.09815722 -0.015569654 0.0985878
000290 75 e6 71 3d 97 7b 0a 3e f8 34 38 3e d5 f1 9f bd
       0.05905767 0.13523708 0.17988956 -0.07809798
0002a0 05 1b 72 bd 41 dd 54 be 92 a4 cc 3d cb 27 83 3d
       -0.0591078 -0.20787527 0.09992327 0.06404074
0002b0 0a 79 22 bc 8a 97 22 bd 7a 98 30 bd 3b 8d 09 be
       -0.009916553 -0.0396953 -0.043114163 -0.13432781
0002c0 16 c5 a8 bc ed 59 ac bd 30 40 96 3d c7 e0 63 3d
       -0.02060179 -0.084155895 0.073364615 0.055634286
0002d0 56 a5 fb 3d d0 36 01 3e 84 17 0f bd 0a 13 22 bd
       0.12287395 0.12618566 -0.034934536 -0.03956894
0002e0 d7 f5 a8 3c b9 7b 46 3c ee 34 f9 3d f3 34 1b bd
       0.020625038 0.012114459 0.12168299 -0.037892293
0002f0 bc 67 23 3d 6c 11 5f be d4 2a 5f bd cb aa 3c 3e
       0.03989385 -0.2178399 -0.054484203 0.18424527
000300 a7 b7 fd bd 62 3d 28 bd 91 78 b8 3d 7a e5 26 bd
       -0.123885445 -0.041074164 0.09007371 -0.04074619
000310 d2 3b 29 bd dd 71 fe bd 12 36 2e be a3 35 8c bc
       -0.041316815 -0.124240614 -0.17012814 -0.01711542
000320 18 d5 15 bd 95 60 11 be f6 33 cf 3d 41 ea 95 bc
       -0.036580175 -0.14197 0.10117333 -0.018300178
000330 ab 69 69 bd a0 30 90 bd 07 ae 23 be e6 5a ee ba
       -0.05698554 -0.070405245 -0.15984355 -0.0018185049
000340 8a 9f ae 3d 56 40 b8 3d bf 73 43 bd d7 7f b0 bc
       0.085265234 0.08996646 -0.047717806 -0.021545334
000350 fc 1d 4d 3c 8b 50 18 be 0e d2 4b 3d ed 47 c3 3c
       0.012519356 -0.14874475 0.04976087 0.023838008
000360 42 0a 83 bd 49 a9 11 bb 14 c2 50 3d 52 1e d6 bc
       -0.06398441 -0.0022226146 0.050966337 -0.026137505
000370 ac ef ae bd 64 9f c3 bd db be 52 bc bf 51 19 bd
       -0.085418075 -0.09551886 -0.012862886 -0.037431475
000380 c5 6d 5d 3d 08 3c 85 3e 8e 60 74 be 2d f7 0a bd
       0.054059763 0.26022363 -0.23864958 -0.03392713
000390 1c 81 a9 3d d0 bd df bd f5 ca ce bb 34 25 46 be
       0.08276579 -0.10924876 -0.0063108155 -0.1935013
0003a0 fe 29 d1 3d f7 f6 30 be 00 47 cd bd 79 fb 02 bb
       0.102130875 -0.1728171 -0.10023308 -0.0019986315
0003b0 17 e2 9a bd 2a a6 2b be 30 3d c6 3d 84 9a 0b 3e
       -0.075626545 -0.16762605 0.09679639 0.13633162
0003c0 60 bb 98 bd 87 4d 6f be de 41 1e bd 8c e8 ee 3c
       -0.07457614 -0.23369418 -0.038637035 0.029163621
0003d0 dd a1 3d 3c 50 88 13 3e 61 0f 1d be c1 2f a2 3a
       0.011574236 0.14407468 -0.15337898 0.0012373851
0003e0 b6 26 a0 3d d1 91 38 3d 50 8e a7 3d d0 19 31 3d
       0.078198835 0.045060936 0.08181441 0.043237507
0003f0 6d e6 92 3d a9 8d 21 bd 84 50 2a bd 66 d9 29 bd
       0.071728565 -0.03944174 -0.041580692 -0.041467093
